saved_checkpoints/BaseLinearModel_2_1_93_valak.ckpt (torch, 814554 bytes, 18 tensors)

layer_1.weight f8 [128, 2]
000000 fd a1 57 c4 3f bb e4 3f 3d 41 73 37 25 c9 e4 3f
       0.6478575548945283 0.649553879071426
000010 10 1c e1 5b 2e 34 d1 bf a5 06 85 4c 4b c5 83 3f
       -0.268809880948937 0.009653652451223247
000020 00 00 00 80 aa bc b8 3f 00 00 00 80 9c bd ca bf
       0.0966288149356842 -0.2089114785194397
000030 00 00 00 60 91 c7 e3 bf 00 00 00 20 aa 56 ce 3f
       -0.6181113123893738 0.23701979219913483
000040 b1 d7 fd 80 8d d0 d3 bf f4 60 38 f1 88 b8 d8 bf
       -0.30960404965241667 -0.3862631183306029
000050 5f 7e 0b ba 99 45 e4 bf fd 18 8a cf 16 d9 e5 3f
       -0.63349615418333 0.6827501348023187
000060 f1 8d 4f 49 44 5b cb bf 83 c5 8f cf 39 be ce bf
       -0.21372273997904714 -0.24018023142665976
000070 87 3a b0 0b 60 8e e5 3f 7c b7 1e 4c 15 af 8f bf
       0.6736297825135161 -0.015470663438317926
000080 fc 03 e4 6e d0 4f da bf e9 2e 60 a6 f3 bc a2 bf
       -0.4111214716832021 -0.03659783750489771
000090 97 70 5b 41 c3 78 ee bf fe 57 49 03 b0 6e cf 3f
       -0.9522415424830964 0.24556541595910625
0000a0 dc 22 a6 af 97 27 df 3f 49 74 f6 4f 32 cc e5 bf
       0.48679153588504476 -0.6811763345500675
0000b0 26 fe 45 60 ca 4d d0 3f 2c 30 f9 11 47 fb d3 3f
       0.2547479572458279 0.31221176867689127
0000c0 00 00 00 c0 31 c1 cc bf 00 00 00 40 52 0f e5 bf
       -0.22464582324028015 -0.6581202745437622
0000d0 00 00 00 40 f7 32 d5 3f 00 00 00 a0 5f 1c c7 bf
       0.33123570680618286 -0.1805533915758133
0000e0 9c d4 eb 36 1b eb c0 bf 0d 7f c4 79 55 15 ba bf
       -0.13217487508487558 -0.10188802931633863
0000f0 27 15 93 f0 64 ba d8 bf 8c dc b8 47 b6 03 c6 bf
       -0.38637660497291154 -0.17198828222328577
000100 00 00 00 40 fb 24 cc bf 00 00 00 c0 61 d9 d1 bf
       -0.21987858414649963 -0.2788929343223572
000110 71 a8 19 22 7e 2a c1 bf 43 42 96 dc 2c e9 e3 bf
       -0.13410927453088875 -0.6222137745226707
000120 00 00 00 e0 8d c6 e0 3f 00 00 00 a0 b3 88 d8 bf
       0.5242375731468201 -0.3833436071872711
000130 00 00 00 40 14 1a 50 bf 00 00 00 e0 44 eb c9 3f
       -0.0009827802423387766 0.2024923413991928
000140 01 f3 85 1d 0b 08 b6 3f 0c 1f 3b 85 2b f3 e3 bf
       0.08606023283750731 -0.6234338380972715
000150 00 00 00 40 06 2d ab 3f 00 00 00 00 4c 73 dd bf
       0.05307788401842117 -0.4601621627807617
000160 c0 ef 58 ac de bf e0 bf 62 1d 1d c2 32 94 db 3f
       -0.5234216085586851 0.4309203048364535
000170 00 00 00 80 7f 54 c0 3f 00 00 00 c0 dd c2 da 3f
       0.12757867574691772 0.41814368963241577
000180 50 d3 e8 12 29 2a de bf cf 7b e5 a4 4c 8b d5 bf
       -0.4713232693350635 -0.33662716010252053
000190 00 00 00 c0 d2 99 d4 bf 00 00 00 a0 29 9d de 3f
       -0.32188862562179565 0.4783424437046051
0001a0 00 00 00 00 e5 db e5 bf 00 00 00 c0 69 75 cf bf
       -0.6830925941467285 -0.245770663022995
0001b0 ff 73 f9 09 56 23 cb bf 07 5e 4c 11 41 27 da bf
       -0.21201587187798052 -0.40864588441169797
0001c0 dd 34 d9 6d 98 63 a1 3f 1a fc b9 2e b5 6d e3 bf
       0.03396297779964084 -0.607142058623029
0001d0 00 00 00 e0 35 d9 db 3f 00 00 00 40 2c 89 e1 bf
       0.4351324737071991 -0.5479947328567505
0001e0 19 ec 86 c2 ab dd dc bf d2 b0 bd d0 ab 95 d5 bf
       -0.45102972027570015 -0.33726020226346265
0001f0 0f 08 eb 0e 88 05 eb bf 90 5a 70 d5 62 e6 c5 3f
       -0.8444252292031268 0.17109332486935047
000200 fb 54 75 b5 3d 5a d4 3f 2f 6e 15 fa 7b 42 b2 bf
       0.31800787659206237 -0.07132696967658413
000210 cc 08 76 50 80 40 b8 3f b0 b3 67 eb bf 4e b0 3f
       0.09473421062833437 0.06370162484354469
000220 f3 2e df a5 f2 90 f1 bf 33 9c ba 76 de bc de 3f
       -1.0978876571052154 0.48027764887450813
000230 1b ef 20 c6 d4 cb d1 bf 33 6f a8 ce a6 a6 a5 bf
       -0.2780658659792025 -0.04228707573585524
000240 ab 23 b0 8f 31 7c d4 3f d8 3c d2 4f 77 ae d1 3f
       0.3200801757052953 0.27627356333773667
000250 93 88 9b 94 65 3f cf 3f 13 88 bd 4d 06 7c d9 bf
       0.24412221676090393 -0.3981948622878246
000260 00 00 00 c0 d4 58 e2 bf 00 00 00 c0 04 5f c9 3f
       -0.5733436346054077 0.19821223616600037
000270 b5 e1 12 cd 97 e2 ac 3f e5 ce 46 8b 7b ba bb 3f
       0.056416267188470405 0.10831424856479151
000280 22 22 e5 3c 94 99 c6 3f c1 a3 8e 8f e8 11 f2 bf
       0.17656186078444686 -1.1293721778585992
000290 4f 2f 07 7c 59 a8 f0 bf ae bc 14 4c 81 48 d9 3f
       -1.0411009640547098 0.39505035810266065
0002a0 00 00 00 80 3f 91 dd 3f 00 00 00 20 c4 42 a3 bf
       0.46199023723602295 -0.03761876001954079
0002b0 04 fa a9 02 e9 3b b5 3f d8 1a 0a a9 d7 e2 dd 3f
       0.08294540705717429 0.4669703627372832
0002c0 00 00 00 40 d3 97 e5 bf 00 00 00 80 64 8f d1 3f
       -0.6747833490371704 0.2743769884109497
0002d0 18 84 e1 bd 53 ad 8b bf e7 d0 1f 34 98 85 ce bf
       -0.013514188987928263 -0.23845198197489667
0002e0 00 00 00 40 81 82 b3 bf 00 00 00 a0 aa c3 dd bf
       -0.07621009647846222 -0.4650675356388092
0002f0 f7 c4 a8 21 be 16 e1 3f 2b 57 f3 c3 62 dc a4 3f
       0.5340262086303075 0.0407439102361152
000300 00 00 00 60 2f 27 e1 bf 00 00 00 20 05 51 dd 3f
       -0.5360333323478699 0.4580700695514679
000310 b2 82 b1 87 34 56 d5 bf 5f 04 b6 5a 9b 0c d6 3f
       -0.3333865475779404 0.3445194612359667
000320 0e 12 6b fc 64 91 e1 3f 3a ce 95 de 40 b9 e1 3f
       0.5489983491939385 0.5538639399878271
000330 6f 63 10 74 f0 c1 bd bf f7 fb 8e 89 8d 65 c3 bf
       -0.11624052842706843 -0.15153664795613483
000340 a0 57 55 e8 4c 75 dd bf ba 7d 3a 89 63 1d e0 bf
       -0.46028444947057245 -0.5035875015491265
000350 2b 75 e4 9b fe d5 dd bf 50 bf 91 fd 9c 80 c0 3f
       -0.4661861917864651 0.12892496472658843
000360 f5 7e 94 cb 7a 83 e1 3f a8 55 3a 74 dd 40 d9 bf
       0.5472997642682161 -0.3945840487516201
000370 44 ad 40 fb 49 4c e7 bf 53 3f 9e 12 7e cd c4 3f
       -0.7280626208570671 0.16252113255586184
000380 00 00 00 e0 0f a3 dc bf 00 00 00 a0 f8 cb c9 3f
       -0.44745251536369324 0.20153720676898956
000390 6c 3f 0c 2c 71 c0 d4 bf 9e 1e de b8 76 dd dc bf
       -0.3242457323221888 -0.4510170750950041
0003a0 74 5e ce f6 a5 a7 c7 bf e3 b8 2a fb 8e 07 e6 bf
       -0.1848037200077105 -0.6884226708987423
0003b0 98 25 8e 75 f5 1f d1 bf f8 77 1d 49 4d 58 d4 bf
       -0.26757561187749834 -0.317889520074345
0003c0 00 00 00 60 5e 7c e5 3f 00 00 00 a0 06 5f e0 bf
       0.6714317202568054 -0.5115998387336731
0003d0 ee 52 7a ef 71 42 d9 3f e9 f2 dd fb 89 b9 db 3f
       0.3946804846430457 0.4331994018209984
0003e0 00 00 00 00 4b 29 e6 bf 00 00 00 a0 bf 49 d8 bf
       -0.6925406455993652 -0.37950125336647034
0003f0 25 c6 97 be fd 32 e4 bf da 0e b0 2f cb 3a b1 3f
       -0.631224510432905 0.06730337061167849
000400 e3 2f e3 33 53 a4 d9 3f b2 95 c4 27 8a a7 e7 bf
       0.40065460269101844 -0.7392016197888351
000410 00 00 00 60 af 3f 99 bf 00 00 00 c0 2d 60 dd bf
       -0.024657001718878746 -0.4589952826499939
000420 62 65 00 45 6b d6 d7 bf 5e 8a 2e a3 d5 90 d1 bf
       -0.37246209848816225 -0.27446499763224164
000430 48 6d 8b cf 4a 88 ac bf a8 0f c3 e7 5d 0c c6 3f
       -0.05572732718948231 0.17225240532399977
000440 f4 18 27 5e fd 90 c0 bf 9a ca cf b2 0b e4 e5 bf
       -0.12942473504353524 -0.6840876095214583
000450 77 ec 1f 75 d8 2e b6 bf 87 a3 f4 42 d6 be bb bf
       -0.08665230617036622 -0.10838069090517709
000460 f5 9c 43 89 8a fa d3 bf db 0c 63 24 71 f1 7b 3f
       -0.3121668186635838 0.006822053872556934
000470 19 20 49 00 d3 1c d1 bf 6f c7 bd 26 75 95 df 3f
       -0.267384290961219 0.49349716933567483
000480 00 00 00 20 21 7b d1 bf 00 00 00 c0 f3 fb b9 bf
       -0.27314022183418274 -0.1015007346868515
000490 7f bd 0d b3 fa a3 e2 bf c4 df a2 57 b8 30 e5 bf
       -0.5825170037405057 -0.6621972762723023
0004a0 00 00 00 00 ca 3a 73 bf 00 00 00 40 14 ee e0 3f
       -0.004694737493991852 0.5290623903274536
0004b0 00 00 00 80 3d 39 c7 bf 00 00 00 80 d8 8e e4 bf
       -0.18143433332443237 -0.642437219619751
0004c0 ce 3e 82 59 ef 03 e5 3f 08 77 bc c9 11 c2 d2 bf
       0.6567303417413883 -0.2930950613098138
0004d0 96 e1 86 16 a9 9c d6 bf 1f 11 7f 28 ac e6 cc bf
       -0.35331179809465973 -0.22578956582413753
0004e0 00 00 00 40 e9 cd 83 bf 00 00 00 c0 89 19 e5 bf
       -0.009670088067650795 -0.6593674421310425
0004f0 8a 54 96 d0 e6 75 e6 3f f9 c0 9e 76 8a 36 cd 3f
       0.7018922876328741 0.2282269553375114
000500 c4 3b 32 ec 9d 5b d6 3f 7a 97 31 34 50 66 dc 3f
       0.3493418509105448 0.4437447080330156
000510 00 00 00 20 a7 cb b6 bf 00 00 00 40 ce 7e ca 3f
       -0.08904499560594559 0.20699480175971985
000520 8c 25 49 65 e9 6d d2 bf c0 61 a4 a1 67 54 d2 bf
       -0.2879584778898667 -0.2864016607795996
000530 69 f6 b9 68 ba fc e3 3f 0e 7a 06 6a 46 2a f0 bf
       0.6246006055295769 -1.0103210584271696
000540 0b 7c bf 51 46 ea d4 3f cf a2 eb 67 80 15 c2 3f
       0.32679899199678236 0.14128117632141943
000550 9f fb ba 22 cb 09 c5 3f 7d 5d 03 e4 d4 53 d3 3f
       0.16436137386150748 0.30199167506130903
000560 e3 07 1a cb 2b 40 c5 3f bf 8e 3d f9 66 ab b3 bf
       0.16602084557604177 -0.07683414063427117
000570 00 00 00 00 13 6e d1 3f 00 00 00 e0 ef b2 c5 bf
       0.27234339714050293 -0.169523224234581
000580 25 12 90 c0 9b a3 c9 bf 8b 60 5a 57 42 ba e3 3f
       -0.20030543234328593 0.6164867120851495
000590 00 00 00 00 fa 36 b1 bf 00 00 00 e0 b7 cb d9 3f
       -0.06724512577056885 0.4030589759349823
0005a0 53 7f e2 d0 69 ad ea 3f 17 ce cf 6a 9f ef c0 bf
       0.8336686210422876 -0.1323127051870052
0005b0 00 00 00 a0 bc a7 db bf 00 00 00 c0 d7 81 b5 bf
       -0.43211284279823303 -0.08401249349117279
0005c0 00 00 00 80 c7 b8 dc bf 00 00 00 a0 e5 2d e4 bf
       -0.44877803325653076 -0.6306026577949524
0005d0 fd 78 98 56 16 bf d1 bf c8 2a 00 d8 97 ae e7 3f
       -0.2772880407009238 0.7400626391184568
0005e0 8c 95 33 6a fb c7 dc bf 9d e1 72 9b ca 24 d2 bf
       -0.4497059380649595 -0.2834955709509133
0005f0 00 00 00 80 01 d1 c7 bf 00 00 00 c0 cd a9 b0 bf
       -0.18606585264205933 -0.06509099900722504
000600 7e 4c 6c 91 71 5c af 3f d6 ce 98 9f 8c 08 db bf
       0.061252163888775066 -0.4223968084872757
000610 c7 31 ec 66 fd b0 c4 3f 31 6d 97 8a 0c 1c b9 bf
       0.16165130162734284 -0.09808424361783775
000620 78 3f 58 1b 55 6c e8 bf bb f3 a7 64 30 a6 e2 3f
       -0.7632241758419545 0.5827867475451208
000630 ff ae 2a c4 2a 5d cb 3f f5 5f 7e a1 06 7a ef bf
       0.21378073290303942 -0.9836457399533162
000640 ef f7 0d a2 31 ed d3 3f 27 26 91 10 14 66 d4 3f
       0.31135216546670014 0.31873036973829233
000650 5f 47 b6 fa 00 3e dd bf 6e a3 d8 d2 44 3f cd 3f
       -0.45690941318127004 0.22849331183649774
000660 1c 81 a6 33 d8 52 e0 3f ee 11 96 e8 46 a6 e5 bf
       0.510112858657553 -0.6765474837016521
000670 5e 2c 13 26 01 0c cc 3f 4c f7 22 8c 61 c0 d0 3f
       0.21911634787679451 0.2617420071145389
000680 16 a9 33 70 60 93 e4 3f a9 72 ea 9c 2d a8 ed bf
       0.6429903212968238 -0.9267795624505953
000690 00 00 00 00 74 67 c5 bf 00 00 00 c0 21 08 c5 bf
       -0.1672196388244629 -0.16431066393852234
0006a0 48 43 98 e5 ce d6 c9 3f cf 20 b8 44 46 78 c4 3f
       0.2018679257457967 0.15992048602516326
0006b0 5f fa c1 26 84 12 d6 bf 55 8d 19 b4 19 03 c3 3f
       -0.34488014016088714 0.14853211683212444
0006c0 f4 f7 45 a7 e0 d2 e2 3f 59 52 ff 91 a5 3b e5 bf
       0.5882418887192657 -0.6635310985098598
0006d0 57 45 55 06 ab 65 de 3f 3d b0 1a 50 92 84 b2 bf
       0.4749553262564254 -0.07233538108511169
0006e0 00 00 00 a0 e2 c6 e4 3f 00 00 00 20 14 07 9c bf
       0.6492779850959778 -0.0273707527667284
0006f0 8e 7a 89 44 5c 84 a1 bf bc 16 c4 a2 5b 41 d2 bf
       -0.03421295487054464 -0.28523913283457225
000700 ad a7 c7 ad e9 f4 b1 bf a3 a0 66 36 16 8c df 3f
       -0.07014332287476917 0.4929252177485159
000710 00 00 00 00 d3 eb ca 3f 00 00 00 a0 09 cb e2 bf
       0.21032178401947021 -0.5872848629951477
000720 00 00 00 40 dc e5 48 bf 00 00 00 a0 26 84 cc bf
       -0.0007598233642056584 -0.2227829247713089
000730 bd 98 af e3 6e 95 e5 3f 11 8d e4 c8 34 38 c0 bf
       0.6744913527479849 -0.12671527680604602
000740 6d 1f e6 d7 df 70 df 3f b4 c4 c7 a1 8d 84 c1 bf
       0.4912643059146749 -0.13685770415717047
000750 75 01 3d 9e 5a 5f dc bf 7e 51 16 8c 55 92 dd bf
       -0.44331994488677334 -0.4620565288580777
000760 ba b7 49 d0 55 e2 b7 bf 50 b5 33 7a 9c 0a be 3f
       -0.09329735121875063 0.11734941466757687
000770 00 00 00 80 70 2c dc bf 00 00 00 00 b8 88 df bf
       -0.4402123689651489 -0.4927196502685547
000780 a3 2f b0 4c 4c 33 a7 bf 2b d7 04 54 4b 5f e1 3f
       -0.04531324802527983 0.542882598971777
000790 39 70 83 ca 48 51 90 bf b9 1c 4f 75 31 34 f0 bf
       -0.015935075149954712 -1.0127424795517028
0007a0 00 00 00 60 73 30 d9 bf 00 00 00 80 fe 63 d2 bf
       -0.39358219504356384 -0.28735315799713135
0007b0 d0 5a 2a f0 c8 8f da bf b2 94 6f 19 be f3 d8 3f
       -0.41502593473107385 0.3898768661877724
0007c0 99 4a 6e 9e 10 7e d6 3f ea 07 be df 87 a9 e6 bf
       0.3514443919349702 -0.7081946725813826
0007d0 1c 36 37 b9 f1 75 a9 bf 6a e7 74 2f 11 54 d4 bf
       -0.049727968081793444 -0.31763105043829987
0007e0 00 00 00 20 99 d7 bd bf 00 00 00 e0 4f ff dc 3f
       -0.11657101660966873 0.45308300852775574
0007f0 2b f3 21 09 73 2d d0 3f b7 37 ae 51 04 bf d7 3f
       0.2527740086732588 0.371033744588995

layer_1.bias f8 [128]
000000 72 90 49 ce 60 5a e1 bf 33 41 c0 16 28 9b cb 3f
       -0.5422824887323385 0.21567250357521459
000010 00 00 00 80 31 4d d4 bf 00 00 00 20 a7 2b da bf
       -0.3172115087509155 -0.40891435742378235
000020 47 a3 9e 29 3f b2 d7 3f e5 a1 55 a9 86 2e da bf
       0.3702543169443299 -0.4090897229821436
000030 1c 88 31 e8 5c 54 cd 3f a7 1e a5 b5 ef 13 be bf
       0.22913705194065492 -0.11749170479481084
000040 97 5b 06 24 d4 7d d5 3f c3 52 de de 13 ae a5 bf
       0.33580497282076166 -0.04234373183786524
000050 0d e8 db d4 d1 72 e0 3f 89 8a ef 07 2f 56 d0 bf
       0.5140160710718661 -0.25526023650142143
000060 00 00 00 20 ef fb a4 3f 00 00 00 40 60 98 d9 bf
       0.04098460450768471 -0.3999252915382385
000070 7b c8 1b 3e 22 fa c9 3f a9 3f 1e 64 91 81 d5 3f
       0.20294597656863175 0.3360331990925212
000080 00 00 00 00 fa 27 bf bf 5a bc e4 2a f9 49 e1 3f
       -0.12170374393463135 0.5402799451602605
000090 00 00 00 c0 f8 a1 e5 bf 00 00 00 40 38 42 e0 bf
       -0.676021933555603 -0.5080834627151489
0000a0 88 16 18 64 56 3f b2 3f 00 00 00 20 14 43 cf bf
       0.07127895301536047 -0.2442345768213272
0000b0 e1 5e 64 85 59 03 d8 3f 00 00 00 c0 8c a7 e4 bf
       0.37520444895333865 -0.6454528570175171
0000c0 4b fd 8e 94 31 3b da 3f 00 00 00 e0 0b 07 df bf
       0.4098628950850595 -0.48480507731437683
0000d0 00 00 00 80 9a 4e a0 3f 77 78 1b 2a f4 c4 d8 3f
       0.0318496972322464 0.38702110397378625
0000e0 a2 e2 d1 89 f5 d5 df 3f 00 00 00 20 48 d5 e5 bf
       0.4974340291878808 -0.6822853684425354
0000f0 ba c7 b4 60 90 48 e2 3f ba 1c 3d ea 1a 18 a5 3f
       0.5713579071800645 0.041199532598108005
000100 f8 6b 63 6c 76 2c bf 3f 4c ca e7 5d 1c 18 b7 bf
       0.12177219530296657 -0.09021165173161555
000110 c9 55 71 bf 76 d4 c3 bf c7 3b 46 1d 7e 5f e2 3f
       -0.1549213824061282 0.5741568156971589
000120 84 58 15 84 b6 84 e2 bf fb f7 79 5c b5 94 d3 3f
       -0.5787003116372635 0.3059514430132137
000130 00 00 00 40 30 28 e3 bf 91 6c aa 6b c8 8b bd bf
       -0.5986558198928833 -0.11541416767652125
000140 f8 9d ad b2 35 37 a6 3f 57 0d 53 2f d4 af b9 bf
       0.043389967023184484 -0.10033918528920559
000150 00 00 00 e0 40 59 e2 bf 20 fe 2c 7b 79 10 c4 bf
       -0.5733951926231384 -0.15675276293221518
000160 00 00 00 20 19 5b cf bf 00 b6 4f 01 26 87 c8 3f
       -0.24496759474277496 0.19162440361053257
000170 00 00 00 e0 c3 cc d9 bf 33 40 b9 91 4b a8 c1 bf
       -0.4031228721141815 -0.13794846167957217
000180 00 00 00 40 79 69 e2 bf c2 b9 19 30 23 54 cf 3f
       -0.5753751993179321 0.2447551712861707
000190 c0 60 04 8d 5c 73 dd bf e1 fa f7 1a 48 91 c0 3f
       -0.4601661088104372 0.1294336444552391
0001a0 c6 a9 e6 27 0d c8 e0 3f 37 9d f1 b6 78 80 d7 3f
       0.524420335704513 0.3672162806091878
0001b0 36 e4 0b fc 83 00 d2 3f 01 62 32 d2 c2 ea 9b 3f
       0.28128146757041195 0.027262729720492377
0001c0 00 00 00 e0 20 a6 d9 bf 58 24 8e 8e 2b 47 db 3f
       -0.40076467394828796 0.42621888085756643
0001d0 4b 40 2b 3d d3 38 c8 3f 0e 0f 3d ad 3d 5c d3 3f
       0.18923416601910711 0.30250493924926125
0001e0 00 00 00 80 78 b7 e4 bf 01 35 30 8d 1b 13 ac 3f
       -0.6473963260650635 0.05483327959528062
0001f0 00 00 00 80 9d 71 7f bf e2 c3 f5 1c d6 34 e0 3f
       -0.007676711305975914 0.5064497533440966
000200 31 7d b2 89 af 30 c7 bf 00 00 00 40 f8 cb e1 bf
       -0.1811732694959374 -0.5561486482620239
000210 96 a0 b2 f7 19 c1 d4 3f c9 14 eb 20 1b 68 ce 3f
       0.32428597630724576 0.23755206210458926
000220 33 fc 99 f1 c8 6a e2 3f bc 97 bf 65 20 a7 a7 3f
       0.575535270574511 0.04619694940610894
000230 0a ce 16 4b 50 56 b1 3f 2d 36 a7 3c dd 9c d4 bf
       0.06772329171399619 -0.32207423136864827
000240 00 00 00 c0 bc 22 b7 bf 96 81 bd c8 fe dd e5 3f
       -0.09037379920482635 0.6833490296085525
000250 00 00 00 a0 8a 98 e6 bf 00 00 00 00 93 76 e3 bf
       -0.7061207890510559 -0.6082243919372559
000260 89 3b ef cb 41 c0 dc bf 11 19 9d 73 38 9f d1 3f
       -0.44923443713644723 0.27534304895779466
000270 00 00 00 a0 61 9f 76 bf df f1 24 cb 12 6e d5 bf
       -0.005523091647773981 -0.3348433479148109
000280 e4 97 e1 c5 87 7d d6 bf 00 00 00 e0 f3 c2 c9 bf
       -0.35141176533067964 -0.2012619823217392
000290 cf a5 1e 7c dd 49 de 3f 6f 2c 25 b6 d2 9e d3 bf
       0.47325837250772634 -0.30656879222505656
0002a0 c1 61 7c b2 47 6f c8 bf 1b 67 6b 2e c0 14 c8 bf
       -0.19089599814539152 -0.18813326136187744
0002b0 5f 09 50 83 52 69 a7 3f 00 00 00 20 d8 2e d3 bf
       0.045725420503020635 -0.2997341454029083
0002c0 09 80 77 89 85 e4 9b 3f 00 00 00 00 35 83 df bf
       0.027238928332622012 -0.4923832416534424
0002d0 1a cc f4 ab 7c d6 a1 bf 00 00 00 80 eb 0e da bf
       -0.03483953093600452 -0.4071606397628784
0002e0 00 00 00 80 0f 5e e4 bf db de df bf bf 77 e0 bf
       -0.6364820003509521 -0.5146178004788128
0002f0 b4 ec 58 26 c4 05 d9 3f 00 00 00 a0 a3 44 b4 bf
       0.39097694153651763 -0.07917235046625137
000300 45 e6 80 7e 61 7a d5 3f e0 5e ad c3 90 2f c3 bf
       0.33559453348025087 -0.14988908342888063
000310 36 71 79 2f db 47 9d 3f 6e 45 5c 1e 2a 3b c2 3f
       0.028594422123533657 0.1424305580372151
000320 ea ab 27 5d 14 af d0 bf 30 d7 64 0b 75 51 d6 3f
       -0.2606860074726557 0.3487217532414091
000330 95 cb 0b 46 35 66 b1 3f 62 5f f8 96 4b 19 cc bf
       0.06796582183942086 -0.2195219504508215
000340 39 85 81 e2 18 8d b9 3f 00 00 00 c0 f7 ca b6 bf
       0.0998092225068107 -0.0890345424413681
000350 d8 53 06 e2 07 f4 c4 bf e5 8d 98 d8 7f 11 a6 3f
       -0.16369722877848747 0.043102259817057655
000360 9a da 4a 1c 67 e7 b1 bf 87 2b e7 e4 99 2a 98 bf
       -0.06993717613918662 -0.023600010486727576
000370 00 00 00 a0 20 33 e5 bf 71 d5 b2 b0 24 27 ad 3f
       -0.6624911427497864 0.056939264840745525
000380 67 c5 f2 42 fc a7 98 bf 00 00 00 c0 3c 94 d1 bf
       -0.024078313432885603 -0.2746726870536804
000390 00 00 00 e0 f4 09 8b bf dc 8e 41 19 ba cb e0 bf
       -0.013202584348618984 -0.5248690121920521
0003a0 8e 1a fd 0e 4f 6e d6 bf 67 7c 3a ba 90 e5 d8 3f
       -0.35048271621455107 0.38901155649541014
0003b0 a9 70 07 64 cb 26 c3 3f 00 00 00 e0 4e a4 c3 bf
       0.14962141403419096 -0.15345178544521332
0003c0 22 4a b2 51 ca de d9 bf ab f0 ed 6e 6f c7 cf 3f
       -0.4042230413262208 0.24827378193356728
0003d0 00 00 00 00 06 3e ae bf ec 8a aa 5a 33 c5 de 3f
       -0.059066951274871826 0.4807861695682465
0003e0 d4 3a cf 8e 44 a3 b7 3f 7d 3b 3e 1d 88 6b ac 3f
       0.09233501898345803 0.05550790173503282
0003f0 00 00 00 20 76 85 e3 bf dc e9 25 ac 91 58 ca bf
       -0.6100416779518127 -0.20582791238469056

layer_2.weight f8 [256, 128]
000000 c0 27 1d c5 11 5d d0 bf ae 8e e5 1f 33 22 a5 bf
       -0.2556805062237082 -0.04127654804576984
000010 00 00 00 40 85 5d a9 3f 00 00 00 20 ea cc aa bf
       0.04954162985086441 -0.05234462395310402
000020 dd ff 2d e5 c6 80 ad bf 00 18 05 44 bf d0 8b 3f
       -0.0576231150398596 0.013581747306158576
000030 d1 40 06 cf 41 fa b1 3f b1 e6 35 cc be 88 c0 bf
       0.07022486976916588 -0.12917313548296286
000040 08 f8 23 f0 7b 9e 83 bf 3d 8c 9d 0a a8 21 de bf
       -0.009579628244406294 -0.4708042243639204
000050 f3 01 47 88 04 cf a1 3f be 29 97 e1 3e 52 a1 3f
       0.034782544742032594 0.03383060935773895
000060 00 00 00 80 56 f8 a9 3f 00 00 00 e0 4b 30 a6 bf
       0.050722792744636536 -0.043337222188711166
000070 c8 d8 5d 9f d7 f2 a5 bf cd cc e9 fc 8d 47 66 bf
       -0.04286836452858861 -0.002719666786384778
000080 00 00 00 60 eb d4 a0 bf 7d 08 15 e5 d3 37 c2 3f
       -0.032874446362257004 0.1423287266316641
000090 00 00 00 80 9b ca 9c bf 00 00 00 20 bc 16 93 3f
       -0.028116635978221893 0.018641414120793343
0000a0 c5 c4 b3 98 9f fa c9 3f 00 00 00 20 c3 6f 96 3f
       0.20296091991580148 0.021910713985562325
0000b0 d1 ff 8d 7b 53 ec b5 3f 00 00 00 40 ba c2 9e 3f
       0.08563730017158312 0.030039701610803604
0000c0 3b 03 c6 44 ff 08 81 bf 00 00 00 00 0d 51 b0 bf
       -0.008317941938686615 -0.06373673677444458
0000d0 00 00 00 c0 47 3c 92 3f 7c 36 f8 6c f2 a7 ba 3f
       0.01780807599425316 0.10412516746893091
0000e0 c1 b8 98 85 2d 95 a7 3f 00 00 00 c0 90 7b ae 3f
       0.046060011442351285 0.05953647941350937
0000f0 82 66 49 d8 7f 7e ab 3f 45 d9 26 a6 4c b8 bc 3f
       0.0536994887849689 0.11218718582572247
000100 4b d7 ae 05 fc db 93 bf 6a 4a e2 b6 4a ef ae 3f
       -0.019393861624585267 0.0604194019553191
000110 be 33 93 20 e3 bd ba 3f 1c ff 67 71 b6 6b 9e bf
       0.10445994897163666 -0.02970776621987091
000120 69 a0 19 de 64 2e b8 bf 5f 39 26 e8 21 f2 b7 3f
       -0.09445791647306269 0.09353839795787654
000130 00 00 00 80 56 10 b1 bf af a3 de ec 32 72 a8 bf
       -0.06665554642677307 -0.04774626866794251
000140 a7 fd 68 c4 b9 9e ec bf fd 88 6e 3b 92 de c6 3f
       -0.8943756900916257 0.17866733457510256
000150 00 00 00 00 c5 c0 9f bf c1 d8 b5 da 48 1b be bf
       -0.031008794903755188 -0.11760382976158025
000160 00 00 00 00 21 de b2 bf 86 f4 fa bc b6 cf 69 3f
       -0.07370191812515259 0.0031508034806778133
000170 00 00 00 80 a8 c8 ae 3f a3 6d 98 94 44 c3 be bf
       0.06012465059757233 -0.12016705158060019
000180 00 00 00 e0 fc b4 9a bf 4b 39 ef 95 f2 05 b4 bf
       -0.026081038638949394 -0.07821575317868683
000190 e1 b8 72 41 f6 81 bc bf 93 95 6d ca a2 fc a6 bf
       -0.1113580617700083 -0.044896208963829974
0001a0 b1 45 31 5a 4a d7 b0 bf 2e ff 4c 70 6d cf 9c bf
       -0.06578507139172164 -0.02813502309731957
0001b0 01 7b d9 bf 2f e7 b0 bf f5 e7 63 6c 94 58 a4 3f
       -0.06602762636019223 0.03973831008075016
0001c0 00 00 00 60 d9 5e af 3f e8 d9 49 a7 b3 31 86 3f
       0.061270516365766525 0.010836986105670257
0001d0 a2 bf 00 4f d0 b3 88 bf 03 9b cd e4 35 10 ab bf
       -0.012061717425325306 -0.05285805147177849
0001e0 00 00 00 60 74 d5 ac 3f ec 94 02 aa 0b 23 ae 3f
       0.05631602928042412 0.05886112642591876
0001f0 00 00 00 20 ae d3 79 3f 46 d8 17 6d f6 c4 ae 3f
       0.006305389571934938 0.06009645539954582
000200 42 fb 12 f7 c4 a4 a8 3f 00 00 00 40 81 3e a2 3f
       0.048132090721529255 0.03563312441110611
000210 12 d6 8a 5f 0a e6 a4 3f dc c3 69 f6 b7 17 b1 3f
       0.04081756988800235 0.06676816717096251
000220 58 fd 8b af 3a 1f c4 3f 81 62 f4 58 04 8e b3 3f
       0.15720304080603387 0.0763857571768174
000230 3e a6 b1 5f d8 41 97 3f 47 de 19 e2 a7 f3 b4 3f
       0.022712117043204076 0.08184289236111751
000240 00 00 00 00 c6 0e af 3f ba 1d 33 9d 3e 3a b6 3f
       0.060659587383270264 0.08682624185450197
000250 00 00 00 00 ad 7d 90 bf 00 00 00 40 ee 76 60 3f
       -0.01610441505908966 0.002009835559874773
000260 fa c8 c2 8b 0a 64 b5 3f 2e f6 9c 6c a6 22 de bf
       0.0835577574933132 -0.47086487395049204
000270 00 00 00 40 b5 e1 ae 3f 72 5a 24 df 4d 6e ca bf
       0.06031576544046402 -0.20649121661763875
000280 9a 8c 78 6a 52 ab b5 bf 00 00 00 a0 dc cc 83 3f
       -0.08464541530024619 0.009668086655437946
000290 57 f3 47 b2 fb af 61 bf c5 43 d8 17 cd b9 c6 3f
       -0.0021591106362834167 0.17754520096107576
0002a0 9b c4 83 c1 b6 cb c5 bf b7 d9 e6 cf 6d 7c 7e bf
       -0.17027935456238627 -0.007442883447245688
0002b0 41 22 b6 ce 8c b4 ab bf 00 00 00 c0 a6 aa b3 3f
       -0.05411186240514044 0.0768226832151413
0002c0 77 9f c6 25 5a 47 a9 bf 00 00 00 80 53 a9 7a bf
       -0.04937249861842379 -0.006509138271212578
0002d0 bc 24 b7 0a f0 dd b6 bf 00 00 00 c0 ef ac b1 bf
       -0.08932399999243307 -0.0690450519323349
0002e0 00 00 00 20 8d 08 9e bf 35 b3 18 3e 2f da 9b 3f
       -0.029329495504498482 0.027199495472973474
0002f0 54 35 c0 4d 3f d2 ba bf 00 00 00 00 f6 2f a1 bf
       -0.10477061889851785 -0.03356903791427612
000300 32 f8 85 af b2 94 b3 3f 59 20 45 ed 18 81 af bf
       0.07648770127522722 -0.061531809772134856
000310 32 20 e6 da c7 79 cb 3f a7 ff df 87 64 27 d3 3f
       0.21465395153450256 0.29927933949511004
000320 37 55 a3 89 ff d4 c5 bf df 2a fa ae 8b e4 50 bf
       -0.17056268902403257 -0.0010310520264364337
000330 ea 97 a1 dd a7 79 b9 3f 95 18 96 33 82 4e a0 bf
       0.09951256905478059 -0.03184897308078508
000340 5d c2 23 f3 82 4d ad 3f 00 00 00 c0 43 9b b3 bf
       0.05723199098600127 -0.07658790051937103
000350 7d ac 27 8a 5e f1 ac bf 57 4e 99 72 1c dd a2 3f
       -0.05652900158369165 0.0368431939974953
000360 49 98 b5 4c f7 33 9c bf 76 cb 97 c3 8e 7c 4d bf
       -0.027541984612433876 -0.000899858197213595
000370 00 00 00 e0 64 cf b1 bf 17 ec a9 fb e5 27 a9 bf
       -0.06957083195447922 -0.04913252541606299
000380 04 f0 ef 19 e0 82 a2 3f 00 00 00 e0 2a eb b4 bf
       0.03615475002877136 -0.08171337097883224
000390 00 00 00 a0 03 91 ab 3f 76 10 eb 92 b5 bf ea 3f
       0.053840745240449905 0.8359020108696444
0003a0 60 2d 08 75 0c de af 3f b0 3d 52 d7 ce f9 ce bf
       0.06224097183811739 -0.24199853433354468
0003b0 8a 3a 70 aa 89 fc a2 bf 00 00 00 20 62 c6 89 3f
       -0.037082960181682514 0.012585417367517948
0003c0 bd 9e 4f 89 dc 5b a2 3f 5e 28 73 0a 99 93 bb 3f
       0.03585709739837515 0.10772091393587988
0003d0 00 00 00 e0 20 1d 80 bf 5b b8 e2 29 4b b6 71 3f
       -0.007868058048188686 0.004324239356874394
0003e0 d9 ec 08 63 2d 44 9b 3f 9f 9d f2 61 6d 39 a4 3f
       0.026627263230904006 0.039500635344036576
0003f0 00 00 00 60 47 44 9a bf 7a 85 4c bb f5 c1 b5 bf
       -0.02565108798444271 -0.08499084303595864
000400 00 00 00 00 9f 1d b5 bf 00 00 00 e0 1b c1 b3 3f
       -0.08248323202133179 0.07716535776853561
000410 00 00 00 e0 5d da a6 bf 00 00 00 e0 be bb a1 bf
       -0.044634755700826645 -0.0346355102956295
000420 00 00 00 e0 c3 1c ab bf 00 00 00 00 ed f9 a8 bf
       -0.05295383557677269 -0.048781782388687134
000430 00 00 00 e0 65 42 b1 bf 00 00 00 80 e8 9e b1 3f
       -0.06741940230131149 0.06883099675178528
000440 00 00 00 00 5e 6b 9f bf 00 00 00 60 5e b6 b2 bf
       -0.030683010816574097 -0.07309522479772568
000450 00 00 00 40 c5 e7 a3 bf 00 00 00 00 9e db b4 bf
       -0.03887764364480972 -0.08147609233856201
000460 00 00 00 60 87 a0 91 3f 00 00 00 40 b4 4f 9f 3f
       0.017213931307196617 0.030577484518289566
000470 00 00 00 20 89 4f a5 bf 00 00 00 40 1b f7 a0 3f
       -0.04162243381142616 0.033135272562503815
000480 00 00 00 20 e1 f1 72 bf 00 00 00 e0 eb b9 92 3f
       -0.0046252054162323475 0.018287358805537224
000490 00 00 00 40 9d 24 b4 bf 00 00 00 60 43 75 b5 3f
       -0.07868368923664093 0.08382054418325424
0004a0 00 00 00 e0 b7 dd a1 bf 00 00 00 00 2b 3a a4 bf
       -0.03489470109343529 -0.03950628638267517
0004b0 00 00 00 c0 6c 88 b4 bf 00 00 00 e0 45 8b a1 bf
       -0.08020667731761932 -0.03426569327712059
0004c0 00 00 00 a0 8c fc 8b bf 00 00 00 a0 49 8e 80 3f
       -0.013665293343365192 0.008083892054855824
0004d0 00 00 00 60 df b8 7e bf 00 00 00 40 ed 5e b3 bf
       -0.007500526960939169 -0.07566721737384796
0004e0 00 00 00 e0 aa b8 8d bf 00 00 00 80 ee d6 b3 3f
       -0.014512381516397 0.07749834656715393
0004f0 00 00 00 80 a5 03 86 bf 00 00 00 a0 5b 85 b4 bf
       -0.010749142616987228 -0.08015988022089005
000500 00 00 00 c0 cb 5a 80 bf 00 00 00 c0 9e 4d b4 3f
       -0.007985679432749748 0.0793093889951706
000510 00 00 00 80 20 1d b2 3f 00 00 00 e0 9d d4 b4 bf
       0.0707569420337677 -0.08136927336454391
000520 00 00 00 20 50 74 92 bf 00 00 00 00 3a cc 9d 3f
       -0.018021823838353157 0.029099375009536743
000530 00 00 00 e0 5d 1f b6 3f 00 00 00 80 2a c8 92 bf
       0.08641611784696579 -0.01834169775247574
000540 00 00 00 e0 b5 ad b4 bf 00 00 00 e0 30 50 a6 3f
       -0.08077561110258102 0.0435805581510067
000550 00 00 00 c0 8b 42 b4 3f 00 00 00 c0 50 0d 9b 3f
       0.07914040982723236 0.026417981833219528
000560 00 00 00 a0 dc 9d a0 bf 00 00 00 80 98 aa 96 3f
       -0.032454390078783035 0.022135145962238312
000570 00 00 00 20 29 34 a6 bf 00 00 00 80 0f 78 7a bf
       -0.043366704136133194 -0.006462154909968376
000580 00 00 00 80 5d f9 b5 3f 00 00 00 60 53 9c a9 3f
       0.085836261510849 0.050020795315504074
000590 00 00 00 60 aa d9 97 bf 00 00 00 60 a1 5d b2 3f
       -0.023291265591979027 0.07174118608236313
0005a0 00 00 00 20 27 96 a5 bf 00 00 00 60 43 a4 ab bf
       -0.04216120019555092 -0.05398760363459587
0005b0 00 00 00 a0 6f 3d b4 3f 00 00 00 a0 7d de 87 bf
       0.07906243950128555 -0.011654836125671864
0005c0 00 00 00 00 c2 a8 a8 3f 00 00 00 00 2f 92 aa bf
       0.04816251993179321 -0.05189654231071472
0005d0 00 00 00 40 8c 5d 9e 3f 00 00 00 00 ee 83 b5 bf
       0.029653731733560562 -0.08404433727264404
0005e0 00 00 00 e0 29 70 b4 3f 00 00 00 80 5e da b2 3f
       0.07983648031949997 0.07364454865455627
0005f0 00 00 00 00 3c 5e b6 bf 00 00 00 60 30 a8 b1 3f
       -0.08737540245056152 0.06897260993719101
000600 00 00 00 c0 41 d7 b3 3f 00 00 00 80 61 67 83 3f
       0.07750330865383148 0.009474527090787888
000610 00 00 00 80 05 66 92 3f 00 00 00 e0 e6 fd 38 bf
       0.017967306077480316 -0.0003813446674030274
000620 00 00 00 40 76 7d aa bf 00 00 00 40 eb 2a b3 3f
       -0.051738448441028595 0.07487364113330841
000630 00 00 00 c0 5f f8 a5 3f 00 00 00 20 f7 70 a8 bf
       0.04291056841611862 -0.04773685708642006
000640 00 00 00 e0 40 a1 9e 3f 00 00 00 a0 1a 9b 60 bf
       0.029912007972598076 -0.0020270843524485826
000650 00 00 00 a0 6f 83 a9 3f 00 00 00 00 82 f2 a2 bf
       0.049830902367830276 -0.0370064377784729
000660 00 00 00 80 96 59 97 3f 00 00 00 60 38 d3 b1 3f
       0.0228026881814003 0.06962921470403671
000670 00 00 00 40 d3 bc b0 bf 00 00 00 40 a8 09 b5 bf
       -0.0653812438249588 -0.08217860758304596
000680 00 00 00 20 10 32 92 3f 00 00 00 20 83 91 a5 bf
       0.0177691001445055 -0.04212579503655434
000690 00 00 00 60 c5 9f b2 bf 00 00 00 40 35 41 82 bf
       -0.07275041192770004 -0.008913436904549599
0006a0 00 00 00 80 87 7e 99 3f 00 00 00 20 28 53 b4 bf
       0.024896733462810516 -0.07939387112855911
0006b0 00 00 00 c0 72 ac 9d bf 00 00 00 20 c2 9b 7a bf
       -0.028978150337934494 -0.006496198941022158
0006c0 00 00 00 a0 56 af 98 bf 00 00 00 80 c0 00 b6 bf
       -0.024106362834572792 -0.08594897389411926
0006d0 00 00 00 00 68 44 91 bf 00 00 00 e0 42 e5 a8 3f
       -0.01686251163482666 0.04862412437796593
0006e0 00 00 00 80 da ff b0 3f 00 00 00 20 a4 e5 ae bf
       0.06640401482582092 -0.06034577265381813
0006f0 00 00 00 e0 60 7d 9c 3f 00 00 00 60 e0 1b b6 bf
       0.02782203070819378 -0.08636286109685898
000700 00 00 00 a0 87 4c b2 bf 00 00 00 40 5e 6f a0 3f
       -0.07148025184869766 0.03209967166185379
000710 00 00 00 60 45 0c b3 bf 00 00 00 e0 8f 65 b1 3f
       -0.07440599054098129 0.06795596331357956
000720 00 00 00 60 5f a5 a7 bf 00 00 00 60 10 e7 56 3f
       -0.046183567494153976 0.0013978633796796203
000730 00 00 00 00 37 93 b4 bf 00 00 00 e0 21 65 a8 bf
       -0.08037132024765015 -0.04764657840132713
000740 00 00 00 00 1d 38 b6 3f 00 00 00 60 14 cb 91 bf
       0.08679372072219849 -0.0173762496560812
000750 00 00 00 00 40 cc 88 bf 00 00 00 80 47 2b ac bf
       -0.012108325958251953 -0.05501769483089447
000760 00 00 00 80 69 e7 a0 bf 00 00 00 00 f8 2f b0 bf
       -0.03301553428173065 -0.0632319450378418
000770 00 00 00 40 9c 6b 96 bf 00 00 00 e0 02 98 84 bf
       -0.021894875913858414 -0.010055563412606716
000780 00 00 00 40 ae f8 b4 3f 00 00 00 a0 47 11 84 bf
       0.08191956579685211 -0.009798583574593067
000790 00 00 00 e0 ad 39 b6 bf 00 00 00 40 71 40 b3 3f
       -0.08681761473417282 0.07520206272602081
0007a0 00 00 00 40 24 c6 b1 3f 00 00 00 20 bc 7e a4 3f
       0.06942965090274811 0.040029410272836685
0007b0 00 00 00 20 ee f7 97 3f 00 00 00 20 73 7c 81 bf
       0.02340671606361866 -0.00853815022855997
0007c0 00 00 00 60 68 d0 a0 bf 00 00 00 80 95 58 8d bf
       -0.032840024679899216 -0.01432911679148674
0007d0 00 00 00 20 29 2c 73 3f 00 00 00 20 76 e7 b2 bf
       0.004680786747485399 -0.07384432107210159
0007e0 00 00 00 c0 16 ac ac 3f 00 00 00 c0 f1 c7 90 3f
       0.05600043386220932 0.016387727111577988
0007f0 00 00 00 00 c8 85 a0 3f 00 00 00 a0 2f aa 93 3f
       0.03227066993713379 0.019203895702958107

layer_2.bias f8 [256]
000000 c2 8d 2a d3 a7 e0 98 3f 00 00 00 60 08 2d b3 bf
       0.024294492972911426 -0.0749058946967125
000010 00 00 00 40 83 0d 85 3f fb 74 dc a1 0d c3 35 bf
       0.010279679670929909 -0.0003320606500539361
000020 7c cf b1 a7 54 5e 7b 3f 4b 13 55 cf c5 38 b0 bf
       0.006681757625404457 -0.06336628257583958
000030 8c dd 1b 67 60 5c a4 bf 90 6a bb dd 4a 21 b1 bf
       -0.03976727732327409 -0.06691425240880222
000040 93 12 91 6a 45 16 99 3f 22 b9 61 de 52 b1 a0 bf
       0.024499020222963862 -0.03260287251110784
000050 00 00 00 40 7a ab b0 bf 58 f9 d7 7b 42 56 ab bf
       -0.06511653959751129 -0.053392484300263277
000060 4d 1d 20 98 49 85 67 3f b5 9a 02 4d 38 55 ba bf
       0.0028711736094952146 -0.1028628528607481
000070 b1 09 ce 6a 24 71 a8 bf 5c a0 e8 01 c8 84 b6 bf
       -0.04773820689935649 -0.0879635815296082
000080 ce 9c e7 22 2d 15 98 3f 8f 42 56 be 20 e8 8f 3f
       0.02351828122655491 0.015579467590926014
000090 0f ca bd 11 21 68 9f 3f 62 9a 65 bf 19 c5 a7 3f
       0.03067065878662772 0.04642563306224613
0000a0 63 9f 44 f3 c6 d1 a4 bf df 05 81 ed fd 34 aa 3f
       -0.040662972636993165 0.0511855461522932
0000b0 00 00 00 60 65 b3 b2 bf 41 c8 9f fe 79 9a a4 bf
       -0.0730498656630516 -0.040241062480973706
0000c0 58 a0 70 cb 70 ef 96 bf de e9 3c 22 4a 4e 9b 3f
       -0.022397768418301517 0.026665838565557702
0000d0 7d 60 8d 17 e6 82 9a 3f 33 bf aa 32 6e f8 b1 3f
       0.025889964282527423 0.07019699799525085
0000e0 37 6d eb 67 fc 2e 9d bf 03 9e 97 3e 69 44 b4 bf
       -0.02849954971575849 -0.07916887071734639
0000f0 60 c3 b2 14 dc 06 b7 bf d2 9a 36 72 e7 da 97 3f
       -0.08994842057542263 0.02329599032023106
000100 6e 01 59 1f 65 4f af 3f 06 ea 04 e8 b4 47 a1 3f
       0.06115261085187994 0.0337502034403379
000110 24 0b 6b 2a f6 3d b1 bf 7e 1a 56 7c 95 33 8b 3f
       -0.06735170875166979 0.013281982285446189
000120 d3 59 9c 1d 49 9c a7 3f 00 00 00 80 96 74 a2 3f
       0.04611423956355378 0.03604574501514435
000130 4d 26 f7 4b 1a 98 92 3f 8e 52 db fe 00 e9 b5 bf
       0.018158350836335924 -0.08558660719001862
000140 00 00 00 80 34 d0 a7 bf 00 00 00 80 4e 31 9d 3f
       -0.046510353684425354 0.028508402407169342
000150 95 43 5a 01 76 e0 73 bf df 6c a4 72 79 d9 a1 bf
       -0.004852734525813048 -0.03486232304040881
000160 d6 ab 7b ca 4a e6 b5 3f c4 6d a1 dc 9b c1 c0 3f
       0.08554522937235673 0.1309084727571258
000170 79 e3 cc 6b 33 34 a7 3f 1c 90 1e c0 90 e9 b6 3f
       0.04532013598367874 0.08950142565169056
000180 d2 a9 6c ba 24 9e c0 3f 31 ec 6a 2c 7e 40 b1 3f
       0.12982615568883077 0.06739033302703558
000190 6c de af 13 80 44 9b 3f 80 5c fc 59 57 f7 b0 3f
       0.026628495408628813 0.06627412745398154
0001a0 4f a1 c6 1d 2c b7 85 bf 00 00 00 00 59 bc 6f 3f
       -0.010603279741943665 0.003873990848660469
0001b0 c4 91 d3 86 45 40 78 3f 5d be 50 92 7f e1 a3 3f
       0.005920669163263562 0.038829790697829415
0001c0 00 00 00 a0 b6 11 9d bf b9 3f 7b a0 5f 79 81 3f
       -0.02838788367807865 0.008532282910351673
0001d0 00 00 00 60 52 3a b5 bf b6 7c 3d 2b f6 85 b4 bf
       -0.08292116969823837 -0.08016909175556716
0001e0 c0 42 79 b7 71 60 ac 3f 00 00 00 60 1b 1a 92 3f
       0.055423310896576705 0.01767771504819393
0001f0 70 13 e8 96 9c 43 a1 bf 42 1a 87 37 df e7 b2 3f
       -0.03371896116372042 0.07385058503778288
000200 f0 8f df a7 45 a6 a0 3f 20 a4 88 67 34 56 a9 3f
       0.03251855539545534 0.04948581470336699
000210 9b 5f 6e c7 59 5c a7 3f d3 62 f4 49 42 e4 96 3f
       0.045626454920408586 0.02235511375792749
000220 88 57 36 3f 27 d0 9c 3f fc ba b2 3d 19 aa 86 bf
       0.02813779185597512 -0.011066624827746
000230 06 45 bb 74 98 bf b6 bf c2 97 54 68 c2 e3 b3 3f
       -0.08886101579561875 0.07769408270959757
000240 00 00 00 e0 ab f4 b4 bf ba 51 67 7a f4 c1 50 bf
       -0.08185838907957077 -0.001022804973776477
000250 c1 1d ab 95 77 e0 b0 bf 0d 84 e5 5e d7 a4 95 3f
       -0.06592509655012348 0.02113663212492516
000260 87 a7 48 41 0f fb a0 3f cf cc dc 0c 98 56 8a bf
       0.03316543266221488 -0.01286047734502063
000270 9b 45 fa 2f 4d 46 90 3f 73 56 74 83 c2 bc ac 3f
       0.01589317899067098 0.05612762312572963
000280 00 00 00 60 bf 91 b1 bf 47 41 45 63 ba a5 b3 bf
       -0.06863018125295639 -0.07674755977246149
000290 f7 89 1b dd be c9 ac bf 8f ef bb 03 81 90 a8 3f
       -0.05622669648234429 0.047977477746797274
0002a0 f0 4d 39 2f b8 28 8d bf ad ad d2 b7 5b 42 97 3f
       -0.014237822476537126 0.022714074225104564
0002b0 3c 73 37 15 9f d2 a4 bf 49 0f 8e e2 21 36 80 3f
       -0.040669413890759704 0.007915749288947576
0002c0 15 2d e9 3c 1c 09 b1 bf dd 57 52 8c f4 2d 9a 3f
       -0.06654526221352726 0.02556593042807963
0002d0 f8 73 39 d6 9c ba ac bf 05 61 71 5b 5f 8b b7 bf
       -0.05611124148411045 -0.09197040541164732
0002e0 dd c3 64 bd a2 aa b2 bf ea d1 da 17 17 19 a9 3f
       -0.07291619418971558 0.049019548093756374
0002f0 ce d2 50 ef fb c3 a9 3f 20 85 c9 87 f8 d9 71 3f
       0.05032336517652923 0.0043582637996178175
000300 65 5c ab da c1 29 b2 bf 06 36 9d 9d bd 6a 85 3f
       -0.07094966496093631 0.01045749795198515
000310 23 d1 4b b7 b6 fa a9 3f 46 c4 ea 0a 7f 46 8a 3f
       0.05074091899396851 0.012829773445760872
000320 00 00 00 00 02 a3 a1 bf 00 00 00 00 41 c9 b2 bf
       -0.034446775913238525 -0.0733833909034729
000330 1b f3 cc 52 ae 97 82 bf b4 e5 7d 58 b4 ad 90 3f
       -0.009078370954392725 0.016287629986867905
000340 16 43 b1 6d 5c 65 a2 3f e3 bf f3 fa 29 cd a0 3f
       0.03592957343119545 0.03281527698879907
000350 fd b0 a8 b0 6a 58 8d 3f 1c 86 95 78 75 0b 93 3f
       0.014328797832682922 0.018598399624698655
000360 20 76 5d f3 90 c4 a9 3f 20 ac a8 65 d0 0b 97 3f
       0.05032780619397337 0.022506004528775603
000370 74 82 13 fc 48 2a bc 3f 00 00 00 40 1b 35 b1 bf
       0.11002021936611489 -0.06721659004688263
000380 a8 4c 05 5e 7c ee b3 bf fa fd 2f d4 b5 11 aa 3f
       -0.07785775466372746 0.05091636862925593
000390 5b b5 3a ec 6f fb 93 3f a0 42 5d 3f 77 63 b7 bf
       0.019513844292921117 -0.09136147782306603
0003a0 2a e6 0f 5a 1c 29 9c 3f 58 ad d4 4d 36 52 74 3f
       0.027500575062708567 0.004961216092208197
0003b0 48 16 64 d7 c5 43 82 bf 56 29 95 fa 22 c4 a3 3f
       -0.008918328891478158 0.03860577877874742
0003c0 52 13 6a 8d ef 71 8a 3f 09 2e de 97 1e 66 a0 3f
       0.012912627699969956 0.032029109991608413
0003d0 c6 a9 5f 62 99 79 a2 3f fe 0b ac 93 2f cc ab 3f
       0.03608397794581068 0.05429218938481738
0003e0 ff 3f 9c fc f8 e9 9a bf 40 64 02 30 4e 66 b5 3f
       -0.026283159654724383 0.08359230682471352
0003f0 60 b4 e9 e0 36 82 b8 3f 92 1f e0 26 8a e2 85 3f
       0.09573691359556014 0.01068599635256343
000400 2c ee 6f 0f 46 55 af 3f 8f 14 2e ef 7b 78 90 bf
       0.06119746149485325 -0.01608461043681025
000410 0c 0b 60 6e 38 cd b5 bf f3 28 a7 3b 43 1c b5 3f
       -0.08516266531664146 0.08246250349398902
000420 00 00 00 20 32 4e a9 bf b5 97 dd ec 55 b3 9f bf
       -0.04942471161484718 -0.030957548696640653
000430 a8 a4 b0 c4 98 a9 b6 bf f6 53 38 26 a4 4b 8e bf
       -0.08852534105303056 -0.01479271165502814
000440 d9 7a 29 8f 41 81 b2 bf 00 00 00 00 db f3 b5 bf
       -0.07228479142348067 -0.08575218915939331
000450 26 2c 78 82 f3 6a b1 bf 54 bf df b5 96 35 b9 bf
       -0.0680381959465853 -0.09847394886287236
000460 e2 c5 18 0c 31 7b 90 bf 7b c8 59 ca 93 1f 83 3f
       -0.016094938624695028 0.009337572682145847
000470 3a 8b c8 b6 7a 23 95 3f e0 ab c5 ba e6 7e 9d 3f
       0.020643155485355204 0.028804402494113535
000480 6a fa 5e 93 b3 4a b1 bf bb f5 36 5c 7f 8e bd 3f
       -0.06754610393452656 0.11545558930716641
000490 50 99 72 cb 7e b6 83 3f d4 49 90 49 a1 2a ad bf
       0.009625425895433054 -0.056965866308150176
0004a0 5d c2 9f be 66 70 ae 3f 26 0f 6e 6d 72 21 7a 3f
       0.05945130421594478 0.0063795537779503305
0004b0 de 00 61 98 59 3a b8 bf 1c ae f0 3e 37 81 a3 3f
       -0.09464035005749191 0.03809521334946117
0004c0 d6 42 f5 53 c5 58 78 bf 95 6a 5e 7a 55 95 b6 bf
       -0.005944033443782989 -0.08821615445632809
0004d0 27 07 be da 50 14 b3 3f 13 45 74 1e 98 1f b2 bf
       0.07452874508274175 -0.07079458945760946
0004e0 c1 da 75 d4 c7 c7 57 bf 6e 94 79 86 c9 02 a0 bf
       -0.0014514399971098798 -0.031271264710803645
0004f0 2e 17 40 d7 1a 49 a3 bf e5 4c 6b c2 30 e0 79 bf
       -0.03766712071960253 -0.0063173203149802
000500 a2 74 57 dc f7 c6 86 3f 47 f9 22 7e 7d 80 b0 3f
       0.011121689235489566 0.06446060494906646
000510 5a 5e c7 62 9e 62 ac bf fa 37 4e 04 a3 55 a0 bf
       -0.05543990093036362 -0.03190335681493646
000520 00 00 00 80 9f 53 7c bf 39 1b 4c 73 21 e9 a6 3f
       -0.006915686652064323 0.04474739582479121
000530 41 fc b8 9c 12 d3 84 bf ab 3f 65 05 3d b2 a8 bf
       -0.010168214233202135 -0.04823485079634734
000540 00 00 00 80 82 76 af bf 34 02 81 c3 6d 71 55 3f
       -0.061451032757759094 0.0013087818060882996
000550 0c 59 bf 51 a0 9e b0 bf 5f 0b e7 dc 5a fe 83 bf
       -0.06492044444835104 -0.009762487284097508
000560 fb 9e df a1 93 c1 8b bf 58 c9 28 90 35 b2 bd bf
       -0.01355281198262003 -0.11600050706400589
000570 b3 14 34 7f 97 07 77 3f 34 e3 cb e2 0e f9 81 bf
       0.005622474465103599 -0.00877582196834368
000580 da ee 00 dd a2 40 a2 bf 88 f5 72 20 0e ab 51 bf
       -0.035649384954437216 -0.0010783803898414008
000590 9e 94 5d d4 cf 47 bd bf 96 07 99 ba 74 d2 58 bf
       -0.11437701163011346 -0.0015150203638687235
0005a0 45 28 84 70 20 00 9c 3f dd 18 c0 f2 1e ec a5 bf
       0.027344233386465317 -0.04281708443891017
0005b0 20 3c ee 23 6a 2f a8 bf c6 49 e0 6b ce 51 91 3f
       -0.04723674477201478 0.016913628896938503
0005c0 57 ba da 0e 55 e2 a7 bf 18 93 1e b9 2c 8d 82 bf
       -0.04664865309074589 -0.00905833187045739
0005d0 cf ca fb dc b4 9a bd 3f 53 1a c0 ec 00 9e ae 3f
       0.11564188380342987 0.059799221897311704
0005e0 29 41 5a 9b 52 80 92 bf 6b b5 e8 1e 72 b0 af 3f
       -0.01806763718792684 0.0618930495005355
0005f0 25 1b fe 62 aa aa 75 bf 00 00 00 60 cc 23 b1 bf
       -0.005289712498671749 -0.06695248931646347
000600 3d 4f 1b c3 13 2b 9d bf 36 b4 74 08 42 3d 93 3f
       -0.028484638961187903 0.018788368002038612
000610 6e 1a e4 96 cc ce 73 3f 0b 5a bf da 74 22 60 3f
       0.004835890939154026 0.00196955512181352
000620 24 80 f9 d1 ed df a7 bf 81 b6 be 0d f0 17 a6 bf
       -0.04663031757513661 -0.04315138023171717
000630 75 97 ad 5d 47 ae 6f bf 75 12 cc 1f 00 d2 a8 3f
       -0.003867282282430768 0.04847717655323872
000640 98 5d af 94 5a c8 a1 3f da 49 bc 63 99 f1 78 bf
       0.034731703424479565 -0.00608978193101214
000650 fe 16 58 2f a0 fb b9 3f 00 00 00 00 9f 99 a7 bf
       0.10149575382100903 -0.046093910932540894
000660 68 e1 b6 53 23 ee ba 3f 96 a5 22 19 ce 79 ac 3f
       0.1051961974507144 0.05561679894283171
000670 d5 2c c2 20 12 10 b1 bf 00 00 00 80 eb 7b a2 bf
       -0.0666514711357878 -0.03610168397426605
000680 20 81 5b f0 5a ed a2 bf 63 b5 ec 22 a4 1c c1 3f
       -0.03696712669420976 0.13368655877404043
000690 f8 95 ae 26 50 06 85 bf 81 1d 60 43 f7 94 8c 3f
       -0.010265947514038296 0.01395600485194737
0006a0 a4 8d 48 3b a0 50 94 3f a4 54 09 5b 46 b0 9b bf
       0.019838813417789716 -0.02703962259905225
0006b0 00 00 00 40 37 c2 90 3f 36 eb 87 ea 4f ca b1 bf
       0.01636587455868721 -0.06949328876355029
0006c0 09 3b 41 67 17 6f 99 bf db 63 4d 6e b1 84 93 3f
       -0.02483784263341263 0.019060871465032974
0006d0 f5 03 3d e1 76 0e ad 3f 2f e1 19 97 e9 f6 ae 3f
       0.05675097941867328 0.06047754258628612
0006e0 29 6e b4 5d 65 de 91 bf 46 0c 4f 4b 13 18 b1 3f
       -0.017449935764586897 0.06677361095994269
0006f0 00 00 00 00 70 84 ae bf 83 33 75 ab b2 df 7a bf
       -0.05960416793823242 -0.006560991219271342
000700 a6 6f 0d 7b 6b 82 98 3f 37 90 68 5a 29 6f b3 bf
       0.023935012231376306 -0.07591494042623102
000710 00 00 00 20 26 ec a9 bf b2 11 6b 5e ab 7e 45 3f
       -0.05062979832291603 0.0006559693109343039
000720 e5 a5 b9 4b 65 d2 b5 bf 19 40 61 53 d5 49 b6 3f
       -0.08524163340339148 0.08706410680429179
000730 2a 0f 89 21 c5 cd b0 bf 1b 4a 94 96 32 8a b6 bf
       -0.06563980168089914 -0.08804622818232881
000740 2c 9e 3b 36 c6 04 a7 bf 49 a6 16 2a 05 9f 8f 3f
       -0.044958299751496206 0.015440025660456007
000750 dc 0e 04 0b 02 86 a9 bf a8 68 58 de e9 d5 53 bf
       -0.0498505247542462 -0.0012106689331461782
000760 3c 0b 61 f9 f4 78 ae 3f 01 df 86 f8 6f a0 7f bf
       0.05951657814195818 -0.007721364389389641
000770 00 00 00 60 cd c4 a9 bf 64 13 77 51 6d 15 9c 3f
       -0.05032960698008537 0.027425487611043478
000780 20 4a 4a 5e e6 24 73 bf cd aa da 43 85 76 ae 3f
       -0.004673862339262175 0.05949799016282995
000790 2d 1a 39 c7 c8 ff b6 bf 64 f7 35 9c eb cf a0 bf
       -0.08984045852512486 -0.03283630639906113
0007a0 00 00 00 c0 5f a0 90 bf 47 55 e0 90 b4 5a a5 bf
       -0.01623677834868431 -0.04170765179166352
0007b0 1e 56 c3 62 0a b4 a2 3f c6 9a 09 ec be 02 80 3f
       0.036529850536379124 0.007817737177174943
0007c0 00 00 00 00 46 28 a4 3f 00 00 00 00 a7 6e 99 bf
       0.03936976194381714 -0.024836167693138123
0007d0 00 00 00 a0 c3 6d 8d bf 3d ff 56 4e a7 e3 9f bf
       -0.014369514770805836 -0.031141866833194632
0007e0 a9 ba 49 5e 40 4b ae bf 47 f8 c1 bf de 95 ba bf
       -0.059167872915044946 -0.10384933644852011
0007f0 9d a8 38 b8 14 70 98 3f cc 86 e3 80 82 4d 90 3f
       0.02386505484006617 0.01592067634272247
