saved_checkpoints/BaseLinearModel_7_1_74_valak.ckpt (torch, 829914 bytes, 18 tensors)

layer_1.weight f8 [128, 7]
0	0x3fb524b050821103	0.08259107556847671
1	0xbfac1693e4a92998	-0.054859754240698055
2	0xbfb58875b6721687	-0.0841134615348783
3	0x3f8588e28c9f0d97	0.010514993587895911
4	0x3fc145618e647461	0.13492984249834009
5	0xbf902dafcbd32f64	-0.01579928094433515
6	0xbfd6b99a65490e1c	-0.35507831469678464
7	0xbfef325adb2c4616	-0.9748968392106601
8	0x3fc0347388716e4c	0.12660068666706292
9	0x3fbc67dc2ce1a1f8	0.11095977874504814
10	0x3fc6f0330d56b638	0.17920530463509166
11	0xbf85752bb1ed8f0e	-0.01047739159339003
12	0x3fc9882daddac931	0.19946833600040173
13	0x3fc1960110fadbb8	0.1373902638349287
14	0x3fc965df279df342	0.19842137751029482
15	0xbfd83a7bef6a2c45	-0.3785695875200797
16	0x3fbf940416d30f2e	0.12335229451406057
17	0x3faafc38875261f9	0.052705542105460475
18	0xbfd44294eb4bd452	-0.31656382539887773
19	0x3fcb07a58a8cbd45	0.21117085709691188
20	0xbfd5d8fb6ec80d16	-0.3413685399866194
21	0xbfd36e1faa1ac598	-0.30359641658568526
22	0x3fb663e54f631f59	0.08746178806461326
23	0xbfa93b6fb27dc27d	-0.04928158811424497
24	0x3fd30b21b781db23	0.2975544254363049
25	0xbfd4918fa54db354	-0.3213843454639591
26	0xbfd04895679f5dd5	-0.2544301521242834
27	0x3f97ef42b8e30eb3	0.023373644384959657
28	0xbfc9d4c01a348b41	-0.20180512694886413
29	0xbf669ecb598bcab7	-0.0027612659144947388
30	0xbfd0a2e8f5598436	-0.2599432369225413
31	0xbfc38bbb4b364c4b	-0.15270177051988507
32	0x3fd5cb4144f1f856	0.34053069813660863
33	0xbfc679bf307be4fa	-0.17559041850453366
34	0xbfb8ad170a1fc377	-0.09639114377183754
35	0x3fc647d722588c67	0.17406739403768087
36	0xbfd603cf720d185c	-0.3439825643330374
37	0xbfce0af199f218c0	-0.23470897690658
38	0x3fc4500776bde155	0.15869229600844884
39	0x3fb19b17adc0217e	0.06877277366596066
40	0xbfcdc7b1d08c0c1b	-0.23265669520341778
41	0x3fa490f719723e7b	0.04016849694846499
42	0xbfb13ebab0966d7a	-0.06736342250080965
43	0xbfc5cebaaba278a4	-0.17037137394522006
44	0x3fc5749d48136dd5	0.16762128848391336
45	0x3fcd2e721c82f136	0.22797991172945736
46	0x3fc84ff4960a0899	0.18994004560596947
47	0xbfd52ceeb705c570	-0.330867460949853
48	0x3fdc3abab000bc71	0.44108454883366394
49	0xbfd3f846186fb86f	-0.3120284308087155
50	0x3fd7c4428366cafc	0.3713537486284364
51	0xbfd57808fbe65a62	-0.3354513606986186
52	0x3fd0eb9836cf07f9	0.2643795523873674
53	0x3fc55d095a069f5e	0.16690174957079312
54	0x3fc8764013c0cacd	0.19110871281153266
55	0x3fb81e3400d42378	0.09421086330634221
56	0x3fbf7d0cdf32fa1b	0.12300186585614663
57	0xbfa86a6682511917	-0.047686770828066986
58	0xbff0699218e9a6c9	-1.0257740948822394
59	0xbfb4c261ff4b126a	-0.08109104616875987
60	0x3fc39e3ffd2f96b5	0.15326690542786073
61	0x3fac0d881d03c6fe	0.05479073862251303
62	0x3fc43cf45cf09dcf	0.15811018503266758
63	0x3fd7038b5ce8f9d4	0.35959133218048334
64	0xbfb2d516a3ff96ac	-0.07356397155634892
65	0x3fd4aac7a8aebf24	0.32292357895765833
66	0x3faeb4eba37a45aa	0.05997406359268649
67	0x3fae91c1b11dbf09	0.05970578467429106
68	0x3fd4753f23d782ae	0.319656167032046
69	0xbfc82530a8b03c33	-0.18863495098818958
70	0x3fb20ed665451e14	0.07053890201961394
71	0x3fc2a7a6dd1b851f	0.14574132725014352
72	0xbfc922d28fdc9886	-0.19637519859788116
73	0xbfcfadbc13c134ed	-0.24748946156106602
74	0xbfd27d3f1518f53c	-0.28889443455030395
75	0xbfdbbff6bfcad280	-0.43359154443468384
76	0x3fc9f22ff3ebd9d8	0.20270347032756209
77	0xbfd373153dc27ecc	-0.30389910727715796
78	0xbfc67f74c7f73012	-0.175764653815691
79	0xbfd11745da057454	-0.2670454625238723
80	0x3fc03f93e987486c	0.12694023993259707
81	0xbfd3c9e3d18450a6	-0.30919738255148344
82	0xbfc8b56fdd1effb5	-0.19303701683929622
83	0xbfc40462b50348d0	-0.1563838371135433
84	0x3fd0f8fe044ee932	0.26519728108145835
85	0x3fc7cd6bd0fcecdf	0.1859564562272231
86	0xbf9922343f3be2fe	-0.024544540748112624
87	0x3fc444d24817c658	0.15835026283416442
88	0xbfc9b57ddb52e29a	-0.200851184932408
89	0x3fb91dba8c54d38c	0.09810987402017995
90	0x3fb1a856b381e4ab	0.0689748943567731
91	0x3fc6d2a9e1ee8c54	0.1783039429838903
92	0x3fdfbbf960ac55f4	0.4958480304788673
93	0xbfb1b7707cf1b415	-0.06920531320948016
94	0xbfc3d7016cdcda5c	-0.15499894919931279
95	0xbfbbff542c05c886	-0.10936475825090683
96	0xbfbcfb0b3ced2e10	-0.11320562589133254
97	0xbfceb6200deed7d7	-0.23993302040406547
98	0x3faba17e11ca5afc	0.053966464683233156
99	0x3fc48f50d35723ba	0.16062364882807662
100	0x3fb14cd042d8fb59	0.06757833129902958
101	0x3fbd0aa0cdf1d205	0.11344342258400537
102	0x3fb7020f62697054	0.08987518456109572
103	0x3fc8018429057735	0.18754627230640045
104	0xbff1948768e97aae	-1.0987619493604757
105	0xbfa7116d3290324b	-0.04505482904651056
106	0x3fc42661514a1d55	0.15742126912321433
107	0xbfb61e6561161000	-0.08640130634563548
108	0xbfbb751ed8a076b1	-0.10725586689701562
109	0x3fcd6be6f0e77010	0.22985541117566344
110	0x3fa3e23cc01128fb	0.03883542866295105
111	0xbfa30cecf485b09d	-0.03720798954859215
112	0x3fe17f5e024285a6	0.5467977565896731
113	0xbfc49ad2a472fc59	-0.1609748175596646
114	0xbfc1d36b876caa1f	-0.13926452744029036
115	0xbfb92cfa59cdf5e3	-0.09834255878919111
116	0xbfbe4116e2f680e2	-0.1181806854351666
117	0xbfca082052470146	-0.20337299363564848
118	0xbfc8a3bb0baf7735	-0.19249666281296532
119	0x3f9282502212cf0e	0.018075229720763857
120	0x3fb39beeebf4cfbc	0.07659810314800003
121	0x3fcd851eac6a931f	0.23062499445691118
122	0xbf9240b3eebc5486	-0.01782494682909832
123	0x3fa0f1f13f123e2d	0.03309587378418786
124	0x3fa1b529a364ac71	0.034585286326852656
125	0x3fd8a55412727b89	0.385090845122186
126	0xbf8eae197b31dafa	-0.014980506012063344
127	0xbfca6aa5ec7af9e1	-0.2063796429337819
128	0x3fd6a59880aaf794	0.3538571602365377
129	0xbfd1d83e1b56e4bf	-0.27882340116373067
130	0x3fb028e57e99b546	0.06312403050261137
131	0xbfc92dd22802fc16	-0.1967108435983113
132	0x3fb8ac053d6eb12a	0.09637482404531697
133	0x3fd1c3ae5dc9c881	0.2775684276485962
134	0x3fcd2a73848103d4	0.2278580090515151
135	0x3f9c824d789f106d	0.02784081505502949
136	0x3fca8a155773eee0	0.20733896989974365
137	0xbfc86f7a71c2d261	-0.19090204767930444
138	0x3f96fccc6234ce9a	0.022448724264178745
139	0xbf8683f43757db15	-0.010993869723262809
140	0x3fe2b216e2541de4	0.5842394276123142
141	0xbfa9123404751493	-0.048967004341229935
142	0xbf79a68b85c192f8	-0.0062623453232830625
143	0xbf96a1c576cf835e	-0.02210148370420783
144	0xbf9edc5046a7f834	-0.030137304604061124
145	0xbf981b6566068819	-0.023542007782118988
146	0xbfb1626cff80200c	-0.06790810811810405
147	0xbfc22f49d3e8538c	-0.142068127127143
148	0xbfc79fad178fb390	-0.18456042910056825
149	0x3fc7e58e4c807ed5	0.18669298873373089
150	0xbfba3ab0a50194e0	-0.10245803860160008
151	0x3fdab47b91ec325d	0.4172657895112815
152	0xbfc207e9cab951d6	-0.1408664932120149
153	0xbfc121b5c80b043b	-0.1338412501118301
154	0xbfd285fa8d4a5553	-0.2894274120129314
155	0xbfc49f7a89bd7c0e	-0.16111690259546702
156	0x3fde493af553dcc4	0.4732196231629582
157	0xbfd11c96b51488bd	-0.267369915805954
158	0xbfc6b133b57b07d1	-0.17728277551037633
159	0x3fca819764b7649b	0.2070798150805658
160	0xbfc76e6ca08e1450	-0.18305738296126828
161	0x3fc8317de46e50a4	0.18901036886075417
162	0xbff4534f81c16c51	-1.2703394955231213
163	0x3fa103514858e05b	0.03322843559402663
164	0x3fba1927f33b05eb	0.10194635093923636
165	0x3fc2413a420755b2	0.14261558746390574
166	0x3fb2810374dcdb15	0.07228108981221866
167	0x3fc7552b05e94b4e	0.18228662289274172
168	0xbfc20b132ea63068	-0.14096298005859187
169	0xbfa7f196fcee773d	-0.046765058875492184
170	0xbfc858f9e5f8389f	-0.19021533707604463
171	0xbf8075f5a0a816cb	-0.008037489858007693
172	0x3fcef2ff6b9497aa	0.24179070237113126
173	0x3fd395681dabcba8	0.30599406144681973
174	0xbfe12faaf4137289	-0.5370688216313094
175	0x3fc118943093c153	0.1335625874703604
176	0x3fc406216bf22c7c	0.15643708964157443
177	0x3fc953b6a4bd86e3	0.19786723178827179
178	0xbfd523850b679e10	-0.33029295076127685
179	0x3fc51b8a8e14b0ac	0.16490299165287092
180	0xbfca06909371e751	-0.20332534026584395
181	0xbfbac19bffb08243	-0.10451674454135067
182	0x3fac67bc05fc8f83	0.055478931170255506
183	0xbff0fe68eef29a3a	-1.0621117910283275
184	0xbfa249820ffbe3b8	-0.03571707196346757
185	0x3fc39f4a2e8fdc07	0.15329863809139985
186	0x3fc2fbf3bebe727a	0.14831396878880182
187	0x3fbbc0f0e00ad88d	0.10841279477867456
188	0x3fd0f578365cb568	0.2649822741394332
189	0xbfa5d1f859b118a1	-0.04261756987448107
190	0xbfa3fee18f85e6d0	-0.039053963441757156
191	0x3fc6810ba308f0be	0.17581315479936238
192	0x3fcd8f195f03e231	0.23092953814900022
193	0x3fa4077b17908fdd	0.03911957419066401
194	0x3fcad097893d2c53	0.20949072075959183
195	0x3fd5d12c1436d424	0.3408918568996475
196	0xbfbc944ff8483a24	-0.11163806735587706
197	0xbfb571e92f6d545e	-0.08376939208877007
198	0xbfbb49a414546e46	-0.10659242149670786
199	0xbfb51f93e912e61f	-0.08251308861044791
200	0x3fe4e74f57c7ba33	0.6532360758263337
201	0xbfcbda7d7b7e9a37	-0.2176052906990706
202	0xbfb3e361693cdb19	-0.07768830127029637
203	0xbf5c3ed949ff6c0c	-0.0017239686931052071
204	0xbfc16162c0277453	-0.13578447706723526
205	0x3f97c92f26894725	0.023228394248071233
206	0xbf89858177be05a0	-0.012461673228019887
207	0x3fc2f3ee7c95b4a1	0.14806920130960058
208	0xbfcb8f413b65ef10	-0.21530928993512832
209	0xbfd016b9cbd087d6	-0.2513870706917464
210	0xbfe585dbb8bf3012	-0.6725901230179281
211	0xbfd01bbebaec8fbb	-0.2516934228353837
212	0x3fb715551adfa56e	0.09016925722212019
213	0x3f84cd6dc99b2d3b	0.010157449450523095
214	0x3fa337416141450e	0.03753094017214141
215	0xbfca16baa56b4695	-0.20381863667585223
216	0x3fd04cf821129454	0.25469783048385364
217	0x3fc8c4488e62d449	0.1934900946850198
218	0x3fb7a0881378dcb3	0.09229326701539513
219	0x3fa4c6aa390c7536	0.04057819315333193
220	0xbfd7ce7b18322c1c	-0.37197759020699706
221	0x3fc47d050307920f	0.16006529472282735
222	0xbfd31eebd0bf0e7a	-0.29876227746374406
223	0xbfd84dc1dccc47dd	-0.37974592745115193
224	0xbf744d195e240035	-0.004956339924547183
225	0x3fbd33315332652f	0.11406238824055913
226	0xbfd364f365a67851	-0.303036546008916
227	0xbfc02a1cf4399ecd	-0.12628518986752227
228	0xbfd0d929452ea205	-0.2632544684989003
229	0xbfc58827e66914b4	-0.16821764708052955
230	0x3fc4a4782e81c772	0.1612692095837321
231	0x3fab855c4752f9bb	0.05375183458953666
232	0xbfc02138a199b3fd	-0.12601383104939137
233	0x3fc25550ced6c0fe	0.14322862720064927
234	0xbfa85158139c42fc	-0.04749560584435206
235	0xbfe34d94c6b497ca	-0.6032203560796401
236	0xbfcc652498edb3f3	-0.2218366381379436
237	0x3fd08a31c329bdf6	0.25843471583263466
238	0x3facc18800000000	0.05616402626037598
239	0x3fd33d9800000000	0.30063438415527344
240	0x3fb0ff2800000000	0.06639337539672852
241	0xbfd1adc100000000	-0.2762300968170166
242	0xbfd5e516a0000000	-0.3421074450016022
243	0xbfa0928b80000000	-0.032368049025535583
244	0xbfd55c3500000000	-0.3337528705596924
245	0xbfd780f98c1e27fb	-0.36724699672106426
246	0xbfccd5336bbfd81a	-0.2252563739891123
247	0x3fc258cef8c420fe	0.14333521982940306
248	0x3fc5856c172a9e2d	0.16813422328162755
249	0xbfc8f4473b7ffd56	-0.19495478062888577
250	0x3fa19b715dd3b6c7	0.03438905973767486
251	0x3f93073f50559091	0.018582333830082624
252	0x3fb0d1bde0000000	0.06570040434598923
253	0xbfb32055c0000000	-0.07471214234828949
254	0xbfca326be0000000	-0.2046637386083603
255	0xbfcbf801c0000000	-0.2185060679912567

layer_1.bias f8 [128]
0	0x3fbcaffa035803eb	0.11206019002567273
1	0xbfc781df3f1158cb	-0.18365088061790966
2	0xbfb3725680e8a5a4	-0.07596340796648932
3	0x3f927c207d9b68b0	0.018051631609389218
4	0x3fd6a1b9e9e096b2	0.35362098540859244
5	0xbfd86ee475a27b88	-0.38176833617938444
6	0xbfced8fc67d0cd63	-0.24099688595888855
7	0xbfc0a9c754c2db31	-0.13018123282173513
8	0x3f92d68571d250da	0.018396458694568497
9	0xbfd6329b6e55f108	-0.3468388154503974
10	0x3fca07eb1113b38b	0.20336664518199785
11	0x3fd9611392719edc	0.39655007649569796
12	0xbfd52b51f9ccba95	-0.3307690562677775
13	0xbfc223df04275856	-0.14171970084015822
14	0xbfb5710e09fcf1cd	-0.08375632995461686
15	0xbfc4fc9a8d39bf22	-0.1639588536813728
16	0x3f70d274bae91b4f	0.004106956460026747
17	0xbfd5f844dcacdb07	-0.34327813673319024
18	0x3fa45290d534443a	0.039692426706217934
19	0xbfd393338c83fc9e	-0.30585945818160976
20	0xbfd651922a861214	-0.348728696372093
21	0xbfba66ee5643cee9	-0.10313310247493813
22	0x3fbfa3e4ad49c22c	0.12359456282298059
23	0xbfb5767f5105f11a	-0.08383937576394765
24	0x3fc4213949161351	0.1572639090410584
25	0xbfbeba0be4dbd200	-0.12002634370202969
26	0xbfcb11a0191434d4	-0.21147538399274046
27	0x3f9bed0799c7c2e0	0.027271384011274047
28	0xbfc4636993944b4f	-0.1592838259317326
29	0x3fb42a06356e1bbe	0.07876623920866074
30	0x3fc658ccb43cd34e	0.17458494949974085
31	0xbfd64dee2b17d011	-0.3485064907865772
32	0x3fd5a8fd6ba15179	0.33843932638890056
33	0x3fb8a12daa05f0d1	0.09620938683468984
34	0xbfd72da740000000	-0.36216145753860474
35	0xbf9c0fe506f52270	-0.02740438322988087
36	0xbfd1c3c620000000	-0.2775740921497345
37	0x3fb686e1c9a1389c	0.0879956357250386
38	0x3fbec1eb4f27b87b	0.12014647181033127
39	0xbfd3eec6f9e4ae7d	-0.311448806797422
40	0xbfc3b00ff87ba93a	-0.15381049759828064
41	0x3f8007478fdbe535	0.00782638461849903
42	0xbfd76fede0000000	-0.3662066161632538
43	0xbf58c0767b17afd6	-0.0015107304610593084
44	0x3fae45a3508be7f2	0.05912504537805309
45	0xbfd735aafc8df975	-0.3626506296494861
46	0x3fc5fe86e45b8548	0.17183004522579837
47	0x3fd83b673e7e2bb7	0.37862568953340364
48	0xbf8616b2791b16ed	-0.010785478897911338
49	0x3fda2b8c3a757236	0.4089079447638001
50	0xbfd77643e0000000	-0.3665933310985565
51	0xbfc45ab421a1c764	-0.15901805536446567
52	0x3fd45216dd924869	0.31751033437570314
53	0x3f9716497c7d1320	0.02254595587079955
54	0xbfc22a49c4e5729b	-0.1419155322463624
55	0xbfd17b2360000000	-0.2731407582759857
56	0xbfc7bab63cc462eb	-0.18538549391885026
57	0xbfb328c1a0000000	-0.07484064251184464
58	0x3fcc28c7459b0f18	0.21999445818630003
59	0xbfd2bbb72acface9	-0.29270724468979253
60	0x3f6856c77d0fe1b5	0.0029710670719362516
61	0x3fd47f7d8c58d46f	0.32028139787445914
62	0xbfb008cbe8ab8c0a	-0.06263422422811984
63	0x3fb0461b6c454be4	0.0635697497685182
64	0xbfcdc79878424bcc	-0.23265367385883307
65	0xbfc4b60aa4f3f896	-0.16180546812387736
66	0x3fc2181e1fc842b4	0.14136101295345826
67	0x3fbce2844413f452	0.11283136999186752
68	0xbfc38f3560000000	-0.15280787646770477
69	0xbfc5c96890635359	-0.17020899820513583
70	0xbfcf0b5b00000000	-0.24253404140472412
71	0x3fca08aa809d4b6d	0.20338946609498568
72	0x3fd1fa0022a685eb	0.2808838213332751
73	0xbfb007166061c7ae	-0.06260814526629474
74	0xbfaf55e57a40374f	-0.06120221249885437
75	0x3fd2d59561b00671	0.2942861036282017
76	0x3fc734fb925f4726	0.18130440375403473
77	0xbfd19b21705eb40c	-0.27509342168451734
78	0x3fbf56baed3fd9aa	0.12241714756223723
79	0x3fa1ec3f1a6465ff	0.03500554272813971
80	0x3fd094fff4b13a53	0.2590942277501302
81	0x3fa1f88b9276cfdd	0.0350993744172283
82	0xbfc11b5a854d3149	-0.13364726551879816
83	0x3fc5f28be9c7a162	0.1714644328597031
84	0x3fa9f07115e1eef5	0.050662549897394195
85	0xbfc934af13829731	-0.19692028477327875
86	0xbfd7cc3680000000	-0.37183916568756104
87	0xbfabc05119d98053	-0.054201635747404574
88	0x3fb0dc130e5d543f	0.06585806942651205
89	0x3fc228b2473e5ea2	0.1418669555539412
90	0xbfd9e7ab6c398569	-0.4047649914628751
91	0x3fba8045b1913b99	0.1035197790636019
92	0xbfcc94ceaea31885	-0.22329123999788095
93	0xbfd1a06637c22722	-0.27541499562413396
94	0xbfd0867f20000000	-0.2582090198993683
95	0xbfd408aa40000000	-0.31302887201309204
96	0x3f830a615cb72f4c	0.009297142641024124
97	0xbfc5022880000000	-0.1641283631324768
98	0xbfc2dae431529513	-0.14730503471688702
99	0x3f6205594f2b3a5e	0.0021998161622385623
100	0x3fb004ec1b6c8d0b	0.06257510823757088
101	0xbfd6767f88fa5b7d	-0.3509825551677109
102	0x3f5e5a1724650b00	0.0018525339124415008
103	0x3f792f477fc891f0	0.006148604672976607
104	0x3fc50820ee7e8776	0.16431056637980718
105	0xbfa48a0d94e2a983	-0.040115761208045185
106	0x3fbbad00b4a6f6ad	0.10810856256918085
107	0xbfd0ac00c83c6499	-0.26049823335922323
108	0xbfb6d80c7577526b	-0.08923414104294529
109	0x3f9f2ff03c65b9c1	0.030456308065760277
110	0xbfd303d9da5bbd89	-0.29711004566248583
111	0x3fd4e33b19d1a9aa	0.32636907121073
112	0x3fcf19df168acda8	0.24297703362172496
113	0x3fcb7e873402a604	0.2147988323170439
114	0xbfa985f9beea5778	-0.04985027747640819
115	0xbfd1414ac0000000	-0.26961010694503784
116	0x3f991c83f40e7666	0.024522840281511547
117	0xbfd30471a0000000	-0.2971462309360504
118	0x3fd261ede7b03601	0.2872271311360635
119	0xbfc58624312b1986	-0.1681561698989748
120	0x3fb30fdd75a93707	0.07446083185751827
121	0xbfd7aa25753637c9	-0.3697599072119116
122	0xbfd12281fd0b45df	-0.2677311869748262
123	0x3fcc40cec1a246df	0.22072777228145576
124	0xbfba859723e41e4e	-0.10360092760321857
125	0x3fbcfea85726a103	0.11326076629359609
126	0xbfd2f69500000000	-0.29630017280578613
127	0xbfc29b477c464bf7	-0.14536374633880175

layer_2.weight f8 [256, 128]
0	0xbfa932fbd90752e6	-0.04921710037493714
1	0xbfb4ce3200e0eaf1	-0.08127129098367526
2	0x3f91025b5aadb254	0.016610553178383405
3	0xbfa93623e9ce54c0	-0.049241182604569556
4	0x3f916f9161cbee41	0.01702716025736906
5	0x3fb19860492dce6d	0.06873132502169606
6	0xbfb1ddf25ca7fedb	-0.0697928882800584
7	0xbf778f6c29baa0c8	-0.0057520127408354285
8	0xbfb278c72df17f1d	-0.07215542670882909
9	0xbfc7975eadffa4bf	-0.18430694099450837
10	0x3fa86f68ada08a7e	0.047724982447353334
11	0xbf9e4273a24a624d	-0.02955036809962257
12	0xbfc3655ef5485352	-0.15153109528241743
13	0xbfc2184167f2eeec	-0.14136521888382647
14	0xbfc0a1b2bface8e4	-0.12993463858749188
15	0xbfb829ad48bd5dd0	-0.09438593889114277
16	0xbfd02045c4b2d1ae	-0.2519697590717226
17	0xbf959109fe85090d	-0.02106109252896098
18	0x3fbed6ede4898594	0.12046706037064886
19	0xbfccb175b6bac522	-0.22416564390508947
20	0xbfe3840cb3383702	-0.6098693371183972
21	0xbfd0ef90b23d6123	-0.264621900617856
22	0xbfc56c9db3bbfb9c	-0.1673771979912687
23	0xbfa64b1c2837bf02	-0.04354179373683388
24	0xbf84c80d19117583	-0.010147192313690883
25	0xbfa2c5a2fb3cd2b0	-0.03666409794678793
26	0xbfa4460287b2a0a2	-0.03959663301913109
27	0x3fb45d934fe1c331	0.0795528478645451
28	0xbfd5395f8de3aa75	-0.3316267858159912
29	0xbf955aaffdd4da72	-0.020853757732050622
30	0xbfa16b89f17350a3	-0.03402358124154261
31	0x3fb8f74c062b6d34	0.09752345228792053
32	0xbfa4743a1973d052	-0.03994924126337253
33	0xbf95e6992adaedb9	-0.02138747524325677
34	0xbfa818a620000000	-0.047063056379556656
35	0xbfa96902c8e26df5	-0.049629294416458615
36	0x3f9de41260000000	0.029190337285399437
37	0xbf60695037e607c4	-0.0020033423199387907
38	0x3fac6fb9473d432d	0.05553988451595724
39	0x3fab65eef3f152fc	0.05351206519904925
40	0xbfd1f4161aca18ae	-0.2805228482833496
41	0xbfb5fad3aa0ebacf	-0.08585856344027863
42	0x3fa9582200000000	0.04950052499771118
43	0x3fa2db90d4b2666c	0.03683140369794277
44	0xbf900f4fdac55223	-0.015683410384854334
45	0xbfca8fdbba916997	-0.20751520738378978
46	0xbfc2b3469f08acd0	-0.14609606519056806
47	0x3fbfba4335dfd710	0.12393589082043044
48	0xbf9b810e13bb4ed6	-0.026859493212056794
49	0x3fd0f46dd01dd75d	0.26491875957377947
50	0x3f9dfdbc20000000	0.029288234189152718
51	0xbfc2892cfb19b9f6	-0.14481127033964442
52	0x3fb7ba965e2ef4f9	0.09269084739112889
53	0xbfc49850dd0c5729	-0.16089831155175574
54	0xbfcfab2b258ebf60	-0.2474111493479496
55	0xbfb4016e60000000	-0.07814683765172958
56	0xbfe16650a24c9467	-0.543739621153361
57	0xbfb130b480000000	-0.06714943051338196
58	0x3fa31af4bd273177	0.03731503304479394
59	0xbfb4ce0956ef59e9	-0.08126886722980199
60	0x3faca5b919f08364	0.05595186654705378
61	0x3fa5b45b147a951d	0.04239163041101277
62	0x3fa8871cd45b2d1d	0.04790582744825598
63	0xbfb33c9d3dc10801	-0.07514364965120991
64	0xbfd7e5ee6e1ac19d	-0.37340889694589824
65	0xbfb7402930228ec8	-0.09082276749773677
66	0xbfb243c2c65b7275	-0.07134644835191202
67	0xbfa73f1065a744f9	-0.045403015526639785
68	0xbfb1379d20000000	-0.06725484877824783
69	0xbfd1e1114d1fa124	-0.27936203509900026
70	0x3fae54b580000000	0.05924002826213837
71	0x3fac22b196a6a684	0.05495219196320725
72	0x3fb9701047e04652	0.09936620478426875
73	0xbfc46ec96a6b61b5	-0.15963094421637228
74	0xbfd6113d1a00ea4a	-0.3448021654072916
75	0xbfbb547ff95c8734	-0.1067581161301206
76	0xbf9b9e030e35929a	-0.026969955198540597
77	0xbfc42429eb7d0285	-0.15735363005116568
78	0x3fb2fc2870874021	0.07416012522958272
79	0xbfc17da8209b69df	-0.13664723961012634
80	0xbfdb84d305a78243	-0.4299819522111969
81	0x3f6b666b30fd3a84	0.003344735487110841
82	0xbfcb0301a40bcd4d	-0.2110292483335833
83	0x3fbc5e0940dd0a5a	0.11080987771587428
84	0xbfb012c6671dadc3	-0.0627864839313395
85	0xbfb7cfb7fd5870cb	-0.0930132859725205
86	0x3faf660180000000	0.06132511794567108
87	0xbfb0129ec6ab1fcd	-0.06278412199310353
88	0xbf892dd4a3c93898	-0.012294446228363662
89	0x3fabe250360992bd	0.05446100864063428
90	0xbfc22fff1881efab	-0.14208973595293392
91	0xbfc4b22cc6be0fdd	-0.16168746666164582
92	0x3f9937a59eab211a	0.024626338776927083
93	0xbfcd612fd42edef1	-0.2295284067201844
94	0x3fb46305c0000000	0.07963596284389496
95	0xbfb20735c0000000	-0.07042251527309418
96	0xbfbc2f2c86f9a137	-0.1100948171166508
97	0x3fa95ce500000000	0.04953685402870178
98	0xbfcb976e8c636797	-0.2155588326921218
99	0xbfd0d6a791f9d2ec	-0.2631014752908374
100	0x3fa3f6f8130683fb	0.03899359924549369
101	0xbfae025cc58729e1	-0.05861177359800585
102	0x3f934531ddd69f25	0.018818644680919
103	0x3f9d2bd8a091e3bb	0.02848757247963694
104	0xbfa7851f56f318f3	-0.04593751846691587
105	0xbfb58c893e794d4f	-0.08417566085090765
106	0xbfb77280e38412ef	-0.09159093432033293
107	0xbfc1413d22c665f4	-0.1348034305381557
108	0xbfc531217c0261c9	-0.16556185298101259
109	0x3f6415e2f7952a53	0.002451842589527056
110	0xbfb7dd081ab75839	-0.0932164254403184
111	0x3fb6542a58b52014	0.08722176233015971
112	0x3fb7a270611182ed	0.09232237214883883
113	0x3fab39d2aebb5cc0	0.053175529317451176
114	0x3fab08eec7b5f754	0.05280252635837593
115	0xbfa45ecd40000000	-0.039785780012607574
116	0xbfbae972d671866e	-0.10512464271007513
117	0x3fae5249c0000000	0.05922155827283859
118	0x3fc332daa9cfbd85	0.14998944560600705
119	0xbfc0800c93c84281	-0.12890774932795426
120	0xbfb29ffcb3200e9b	-0.07275370953726183
121	0xbf8abadc20000000	-0.013051719404757023
122	0xbfc58538f1af5c81	-0.1681281261541905
123	0xbfa4c92a4aa77d6e	-0.040597268689220964
124	0x3fa60376987a41d9	0.04299517260836056
125	0xbfcc3fac3684ddb2	-0.2206931368070691
126	0x3f4772e500000000	0.0007156007923185825
127	0xbfb43ce4f55d8171	-0.07905417433130936
128	0xbf725030534639ea	-0.004471005221047689
129	0xbfb519bab9dc3b22	-0.08242384946445871
130	0xbf910f6a2b75c434	-0.016660365011777326
131	0x3fa784225e89e2da	0.04592997936282979
132	0xbfae770b7111393c	-0.059501988937528755
133	0x3f95841320000000	0.021011637523770332
134	0x3fad076b621aef1f	0.05669723103116397
135	0xbfabf38324c75c90	-0.05459222625693727
136	0xbfa0ce0cff8a5899	-0.032822042650125734
137	0xbfa209c382978df7	-0.03523074120655772
138	0xbfaf705813a5f0f1	-0.06140399207922254
139	0xbf7897e4e8ab2545	-0.006004232573738226
140	0xbfb687fb219bf7b4	-0.08801240511453906
141	0xbfb1f13960000000	-0.07008703798055649
142	0xbfa2d88beb2e90d6	-0.03680836912033818
143	0x3f6946b8d31dd327	0.003085480676356406
144	0xbfb23afad51b6158	-0.07121246054464814
145	0x3fae343788cee73e	0.058992133569928815
146	0xbfb1fe1d830562c3	-0.07028374146228615
147	0xbfb6bf9a09debf0c	-0.08886111012429526
148	0xbfadc852c7cff7f4	-0.05816897095790799
149	0xbf902b66f730bd80	-0.01579056628923814
150	0x3fa01d42ad272f46	0.031473239552353635
151	0xbf99a7f67606a1ec	-0.025054789499025107
152	0xbf9f41b3e53c8acf	-0.03052407347343938
153	0xbfa94b38492fb3a5	-0.04940200703990819
154	0x3f8e74615fa6c691	0.014870415431548241
155	0x3fa8ea3f66442abf	0.0486621677719845
156	0xbfb5383cf6bf30ba	-0.08288937591641146
157	0xbf6af99434034146	-0.003292836627316972
158	0x3f9c320f5882b381	0.027534713532691327
159	0x3f907784e0000000	0.016080928966403008
160	0x3f91adb24541370d	0.017264161564802417
161	0xbf981b3b00843970	-0.023541376024746652
162	0xbf7564f360000000	-0.005223227199167013
163	0xbfa8a513b37123ae	-0.048134437231574054
164	0x3f893d3e40000000	0.012323843315243721
165	0xbfb0bbd79c2077b7	-0.06536624490442376
166	0xbfb872a14c2ac57d	-0.09549911603496315
167	0x3f470bd560000000	0.0007033149595372379
168	0xbfa91e558f416c84	-0.049059556710482816
169	0xbfa941d298e99bfe	-0.049330311933594814
170	0xbf9b06ffa0000000	-0.026393884792923927
171	0xbf8d787e0e553e39	-0.014389977276237352
172	0x3f9802e5c3fc4671	0.02344855316829925
173	0xbfb39f11f5e71b15	-0.07664596799359587
174	0xbf73101ea0000000	-0.00465404475107789
175	0xbfb4458d98392ba3	-0.07918629614247989
176	0xbfb11e75c0000000	-0.0668710321187973
177	0xbfb0c4dd67cac8b9	-0.0655039194487327
178	0xbfa08570c0000000	-0.03226806968450546
179	0xbfa6384a0604e482	-0.04339820216632352
180	0xbfb0984e8bf0bc80	-0.06482401768220036
181	0x3f7cbd6a3b39cd6d	0.007016577688421105
182	0x3faedb497518eb7a	0.06026677660380293
183	0x3f80568f00000000	0.007977597415447235
184	0x3f8fb8c5cea9847f	0.015489144677476084
185	0x3fa7d40de0000000	0.04653972014784813
186	0xbfa26996738ace2d	-0.03596182022502279
187	0x3fa9f4d1cbb8942c	0.05069594966725108
188	0x3f929ce2bd1fbc4f	0.018176596444331058
189	0x3f6a490fd9f0b915	0.0032086667629506274
190	0x3fb286ebf5739112	0.0723712419745122
191	0xbf9106a48f4f75ac	-0.016626902815792086
192	0xbf888fe8e58558f3	-0.0119932360691277
193	0x3f964d8358652cee	0.021780063886848326
194	0xbfa0e455ba307fbe	-0.0329920568258326
195	0xbf9a5b21934b6246	-0.025738262763157736
196	0xbfb31bb3e0000000	-0.07464145869016647
197	0x3f9cc2ab99d6302c	0.02808635832256827
198	0x3f9140dc00000000	0.016848981380462646
199	0xbfa466cd979bbbb6	-0.039846825367809854
200	0x3fadf8c197f2a524	0.05853848438102663
201	0xbfa9682a1af0393d	-0.04962283686482969
202	0x3fa6d51fce16a049	0.04459475889899573
203	0xbfb71d9cd4da41c0	-0.09029560276599735
204	0x3f6cf53839c020ed	0.0035348985820783303
205	0xbfb08770fceaf032	-0.06456667113064965
206	0xbf8c8d47535e7fa8	-0.013941342574810126
207	0x3f4f89b2f99f6ee9	0.0009624599363138006
208	0xbf892e4e40000000	-0.012295352295041084
209	0x3fa370a2cf67df78	0.03796871930893436
210	0xbf94109be700d0cc	-0.019594608282390166
211	0xbfad3d3c19199a08	-0.057107809127774856
212	0xbfb3d1d1ac952669	-0.07742033446734244
213	0x3fa16b6c40000000	0.03402269631624222
214	0xbf9a535740000000	-0.025708544999361038
215	0x3fb2fc4468bc7285	0.07416179234537353
216	0xbfa2a81b0dd92586	-0.03643879455610048
217	0x3fb1aaf5eb637158	0.06901490208423888
218	0xbfa312105b1c631b	-0.03724719154542396
219	0x3fa0060696dc0597	0.03129597274347445
220	0x3fb0c81e05eab63a	0.06555354732946564
221	0xbf91807e6d60ecfe	-0.01709172766298383
222	0xbfa6504bc0000000	-0.04358135908842087
223	0xbfb53bbc00000000	-0.08294272422790527
224	0xbfb255ca23d9239d	-0.07162154555511653
225	0xbfa4321480000000	-0.03944458067417145
226	0xbf89d0ec90dcac67	-0.012605522318685126
227	0x3fa937c0554b5e23	0.049253473674692815
228	0x3f9ab84180c3f0a8	0.02609350536748481
229	0xbf810ef9a58eb47d	-0.008329344143783718
230	0xbf8d80ebc6417007	-0.014406053531438102
231	0xbfab7b2f329b8936	-0.05367419712799164
232	0x3f72e53a79003ddd	0.004613140496089821
233	0xbfac15e037fa84f0	-0.054854399522136776
234	0xbfa07c7b93f905b0	-0.03219972783382319
235	0xbfb5f1f28c0b5b89	-0.0857230750947179
236	0xbf97420519bc2e61	-0.022712783523316186
237	0xbfb9dd7e9adeb542	-0.1010359886265251
238	0x3fa65aafe0000000	0.043660636991262436
239	0xbfb80712b1be3038	-0.09385792579104268
240	0x3f9ff628818915a1	0.031212456613749166
241	0x3fabebde1cad2874	0.05453390216878598
242	0x3f68b4b5572c68de	0.0030158559615190835
243	0x3fab322540000000	0.05311695486307144
244	0x3faff71d012c8563	0.06243219985322914
245	0x3fb3e636a0000000	0.07773152738809586
246	0x3fb1a667ac413c85	0.06894538836898974
247	0xbfa681cd5b2ef52f	-0.043959061985768925
248	0x3fb02e82dc80a04e	0.06320970424042224
249	0xbfa77105a0000000	-0.04578416422009468
250	0xbfb1e0834067df4f	-0.06983204195409808
251	0xbf7df2d494f63281	-0.007311659238791735
252	0xbfb24bf2e96d5d48	-0.07147138785272944
253	0xbf7f975f178d4e38	-0.007712718442082038
254	0xbfb3572080000000	-0.0755482017993927
255	0x3fa9899bf2c300b6	0.04987799967193622

layer_2.bias f8 [256]
0	0x3fa2e17e41f1435d	0.03687662653886179
1	0xbfb91a8f05bf77dd	-0.09806150331812043
2	0x3fbc596d6a6f65a9	0.11073955391420633
3	0xbfb06aa005036636	-0.06412696955103389
4	0xbfb7c921c4623736	-0.09291277927897287
5	0xbfaa3cc2cf478399	-0.05124481945291066
6	0xbf99ff541cd2be86	-0.025388063678006854
7	0xbfb11df00103b4f2	-0.06686306023376057
8	0x3fa04ffdcae793db	0.03186028577673713
9	0xbfa451132aa896d3	-0.039681052167265606
10	0x3f98116aec769804	0.02350394314057526
11	0xbfb8cb4b38c08400	-0.09685201774165364
12	0x3f746f3b0c75486f	0.004988890322538449
13	0xbfb64b940a3e5139	-0.08709073305209793
14	0xbf80372f6869d916	-0.007917757390924634
15	0xbfaf92b4aae720cd	-0.0616661509153019
16	0xbfa5eddcae409bc9	-0.0428303683004781
17	0xbf92f025e0000000	-0.018494216725230217
18	0xbfae673e80000000	-0.05938144028186798
19	0xbfb8acb9d1b84924	-0.09638558740724484
20	0x3fa680b38da29a39	0.0439506636042108
21	0x3f9fbdddafd08e61	0.030997718673587808
22	0xbf9a0e243a780871	-0.0254445706068584
23	0xbfb86f38b14bc032	-0.09544710472596377
24	0x3f99bb2b0fec890b	0.02512805256550003
25	0xbfa5447f4ee2b338	-0.0415382179065546
26	0xbf9df04cc0000000	-0.029236983507871628
27	0x3fc1012cde1813ff	0.13284836620746884
28	0xbf93f18fd3497525	-0.01947617270558512
29	0xbfb39a5d78c1ef38	-0.0765741748636487
30	0xbfaba40f61fbd1e9	-0.05398605414476149
31	0x3fc30d872f758f46	0.14885034386963464
32	0xbf9fe39e6afb2911	-0.031141734389884827
33	0xbfa26d08f4c985bd	-0.03598812091946566
34	0x3fb12a6336e9d1c0	0.06705303278596997
35	0xbf7a690de7b8b45f	-0.0064478438539881935
36	0x3fa10fcf532bdddb	0.033323744681122945
37	0xbf5bb08bd4e63199	-0.0016900411170325035
38	0x3fbc7d216e81320d	0.11128434131496352
39	0xbfa3114c131e52eb	-0.03724134190921354
40	0xbfb8eea1f084a521	-0.09739124414467827
41	0x3f98b768b86dee40	0.024137150055578482
42	0x3f9b27c520bb0522	0.02651889812728315
43	0xbfa6ddeb57d673aa	-0.04466185996282175
44	0xbfb3356388056e19	-0.07503339835005142
45	0xbfb1e79b984987ef	-0.06994030445051157
46	0xbfb9f34887be0869	-0.1013684588815821
47	0xbfbb5f237da10571	-0.10692045037378307
48	0xbfaca064690e9858	-0.05591119558748464
49	0xbf731f2d50e28cac	-0.004668404593903091
50	0xbfa8453a8232c937	-0.04740317191444137
51	0xbf658cf4b0104922	-0.0026306895310962567
52	0x3fb31ed4d5be8039	0.07468919962275401
53	0x3f65bbe5c5c4c767	0.0026530730957796014
54	0x3fb0f2b7c5a3d1b5	0.06620358061974836
55	0x3fbc6d83b8115f3b	0.11104605907291625
56	0x3fa3be27535cf9d8	0.0385601319562629
57	0xbf8a2bee8f5ace7f	-0.012779105901564279
58	0x3f6630286073063d	0.0027085102661608394
59	0xbfb29f2f4ae0fe45	-0.07274146631333973
60	0xbfb4c747cb7fc35b	-0.08116577833403708
61	0xbf90f77385db97b5	-0.016568951649695147
62	0x3f9ce779323f209c	0.02822675103360038
63	0xbfb1803777decf0f	-0.06836268116495268
64	0xbfb4c3c9e2654f3d	-0.0811124971126533
65	0xbfae3e27b1687793	-0.059067955404528714
66	0x3fa841ce41889abf	0.04737705755205956
67	0x3f8ca287034a64c6	0.01398187140266528
68	0xbfb6dee407ffd206	-0.0893385428933656
69	0x3f98448270e8e282	0.023698843137227595
70	0x3f93209fdd0d66a5	0.018679139964069908
71	0xbf9cdb94b2647248	-0.028181384456831077
72	0x3fc4f115920b3b11	0.1636073077301821
73	0xbfb4e4c3ba4205b3	-0.08161567017852782
74	0xbf9a51ea436bba45	-0.02570310627464269
75	0x3fa2b03b9c794101	0.03650079999045098
76	0x3fafaa4a618aa2da	0.061846088797499824
77	0x3fac9f64f922cded	0.05590358296594986
78	0x3f8838bfd34db14f	0.011826990734072366
79	0x3fa378828d873cb4	0.0380287931217195
80	0xbf627fd1473f0fd4	-0.0022582137553133017
81	0xbfb3e0ad5398fd35	-0.07764704981763233
82	0x3f9969c449a7a1ae	0.02481753062775887
83	0xbfb9d0498f502539	-0.10083446263174246
84	0x3f9e043e0a48da61	0.029313058259697992
85	0xbfa5cd35b5588b96	-0.04258125151343177
86	0xbfa21d98b45ac859	-0.03538205339045026
87	0xbf975d790d89c8b4	-0.022817508174235626
88	0xbfbf7cd47471022c	-0.12299850313957766
89	0xbfb06f0bd94d5608	-0.06419443183161644
90	0xbfa266fdc165f7ac	-0.035942010744278136
91	0xbf947154e1e2cc1a	-0.019963575636847343
92	0xbfa239bddafb475f	-0.03559678362002105
93	0x3f6b46a372f280f7	0.003329581486085083
94	0x3fc55b5a922adb19	0.16685039650993685
95	0x3f77ce21e92927c5	0.005811817611695196
96	0x3f979fd2f6f9e8de	0.02307061798499254
97	0x3fb9ced41d7eeda1	0.10081220359909661
98	0x3fc57830641e06f0	0.16773037804164614
99	0xbf6cfc113178fbe5	-0.0035381637387952186
100	0x3fb6e091742c20c7	0.08936413847198131
101	0xbfb69d867906f3d4	-0.0883411450840435
102	0xbfb6d54fc3749ffa	-0.089192376345295
103	0x3fa924280c21c7ca	0.04910397670836593
104	0x3fba08d58bb574fa	0.10169729863033075
105	0xbfaac5f0a6bd7f44	-0.05229141269114604
106	0xbfb12d76b67fe5b6	-0.06709997134739507
107	0xbf8d9ab7b9c40175	-0.014455256802194264
108	0xbf93c6760f90ba5e	-0.019311756801636874
109	0xbfabbb14bfbaaad8	-0.05416169014400446
110	0x3f96ebf60f11d9d0	0.022384495420249284
111	0xbfa41e0189ecb75a	-0.03929142769480505
112	0xbfb4b6e17f485c41	-0.08091554028975258
113	0x3fa9ee23cbd249d1	0.05064498770765947
114	0xbf944312554f1b41	-0.01978710790333627
115	0xbfb5bf7c18408d11	-0.08495307533353393
116	0x3fc6bf82f355c70d	0.17771946794123786
117	0xbfbf378981649457	-0.12194117936140124
118	0xbf924c23acac8be9	-0.0178685735837795
119	0x3f961658fdefbcee	0.02156962442307713
120	0x3fb7e37be5f24064	0.09331488002703875
121	0xbfb4d50a268e4424	-0.08137572709371504
122	0xbf80b85296a95877	-0.008164067480873378
123	0x3f793c909455c0dd	0.006161274684345322
124	0x3fa1d04b399ee2a7	0.03479228094460512
125	0xbfb1ed34dd0e09ba	-0.07002573391768055
126	0xbfbd930b846c496a	-0.11552497847541124
127	0xbfafc5cace693143	-0.06205590982117084
128	0xbfbdfc638b8f2c5f	-0.11713239819725761
129	0x3fb4a891fce2184e	0.08069717811494678
130	0xbfa4a1c9a1af6659	-0.04029684160896058
131	0x3fa06d4c6a974426	0.032083881389219734
132	0x3fb2bdb27f541296	0.07320705040553785
133	0x3f617bd2aea3b469	0.002134238709109716
134	0xbf91a0123fcc4dd1	-0.01721218599693747
135	0xbfc2e365f52b868b	-0.14756464453880755
136	0x3faa7253a6b9e993	0.05165349397880727
137	0x3fb02313cf61233c	0.06303523838972763
138	0x3f6ab373c3240207	0.0032593976003456623
139	0x3fb80a5454353e1a	0.09390761428698405
140	0x3f784df87c85ba34	0.005933733606396308
141	0x3fa230f5cc30e63c	0.03552978627744749
142	0xbf8be536651ff272	-0.013620781861385132
143	0xbfba174a4079c143	-0.10191787790404754
144	0x3fa1928f19f54be7	0.03432128135559492
145	0xbfae8cf656ae45b3	-0.0596692066966499
146	0xbf51e9d89e98471b	-0.0010933509278214296
147	0xbfae8d44e5df3f37	-0.05967154794745826
148	0xbfb7a6b1aa8f3704	-0.09238729871796286
149	0xbf81f4ebb9f1cd70	-0.008767930614544922
150	0x3fa80da011a1b71f	0.046978952553088364
151	0xbf8d952ba52a8dd5	-0.014444676378224589
152	0xbfb671c946628c7b	-0.08767374008543698
153	0x3f361f13892e273e	0.0003375456519100101
154	0xbf9a7eb34d751af1	-0.025873948671938988
155	0x3f83a90584de0246	0.009599726788793405
156	0x3fa9f77028b2b3f1	0.050715928047203714
157	0x3fa89e81589f7b3e	0.048084299152597584
158	0x3f9ce525c3d33323	0.02821787841530744
159	0xbf9396e53fc4cbbc	-0.01913030816758597
160	0xbfb064236c9850f9	-0.06402799035305752
161	0x3fb6cc1e152df4d4	0.08905208603933384
162	0xbf94b842bc76dd2a	-0.020234148743580573
163	0x3fbeb85ae59d9ce7	0.12000053506709528
164	0xbfb2544c49bc5efd	-0.07159878540221239
165	0xbfc2070aae509524	-0.14083989631141336
166	0xbfad13c1fe33b672	-0.05679136493732252
167	0xbf7b9413ddcc90b6	-0.006733014681945251
168	0x3fbf9497f65e3622	0.12336110844463424
169	0xbfb1f9996a1f23c4	-0.07021483269558276
170	0x3fae8df3fe2be385	0.059676766182696496
171	0x3fa33c7cb3f3851d	0.037570855108933744
172	0x3fab811caf8a6417	0.053719421795172355
173	0xbfbca82737d1316e	-0.11194081413959164
174	0xbfb4beb8985d0a32	-0.08103517265139074
175	0xbfa6419786e0ed48	-0.04346917649714982
176	0xbfa5a76a2200354c	-0.04229289689110746
177	0x3fc7a55a481c2957	0.1847336628055227
178	0xbfb705f5da56b535	-0.08993469791922311
179	0xbfabbe617f01beb2	-0.05418686557174847
180	0xbfb010c6bb9e5ade	-0.06275598602801888
181	0x3f7ba4a177c9a7f8	0.006748800977769413
182	0x3fb76ac5706578dc	0.09147294992496618
183	0x3fb4afd7be129f91	0.0808081473393243
184	0xbf9bd49910c4b0a3	-0.02717818417401986
185	0x3f98a5289b85c34f	0.024067530147877488
186	0xbfaa1daa3669147a	-0.05100757517042438
187	0x3f99f37079fd1825	0.02534270996627454
188	0xbf9cc7f3937c1200	-0.028106504322765957
189	0xbfb365869ee13be4	-0.07576791170980318
190	0x3f8edf3e2e40f238	0.015074239527273922
191	0xbf98a53a58004a77	-0.024067794438517667
192	0xbf8144081fcaa4e4	-0.008430541486932737
193	0xbfbcb05d4c224c2e	-0.1120661078332865
194	0xbfad0a17c638efb2	-0.056717627474852775
195	0xbf803804d86d128c	-0.007919347624587368
196	0xbf972ba1df2ca627	-0.022627381559834483
197	0x3fbb457b05b48934	0.10652893914496958
198	0x3fb7ae6f85fc2a44	0.0925054266082635
199	0x3fc2c72967b23860	0.14670293391503986
200	0xbfb2d0b8f1eea981	-0.07349735170888573
201	0xbfb77be644bcbdad	-0.09173430612712848
202	0xbfa43459bf061a72	-0.039461903160419434
203	0xbf9d8cedb29e4ad4	-0.028857912089345586
204	0x3f913c122ad56681	0.016830715050082382
205	0xbfb64cb6a3afc745	-0.08710805412536356
206	0x3f8dd83b39029af0	0.014572584798157234
207	0x3fa7ab1aeb49c903	0.046227303716380085
208	0xbfb64c1b43c8fab3	-0.08709879307660166
209	0x3fc781d176c30156	0.18364923762238544
210	0xbfaf2c5a66c1e782	-0.0608852625309302
211	0xbfb32c433f8ebce5	-0.07489414502809984
212	0xbf99be2058c6931a	-0.025139336985051754
213	0x3fa18fff8fb0c44c	0.03430174473795286
214	0x3fc48d6a0b484dd1	0.1605656199541117
215	0x3fb1d438964ada61	0.06964448613403242
216	0xbf9afe227ac921fd	-0.02636007189201627
217	0xbfa6ffb1408c2819	-0.044919528130847826
218	0x3fb29553818e5846	0.07259103692044375
219	0x3f8c792590cc313a	0.01390294407021796
220	0x3fb8c5973f630407	0.09676499650505842
221	0x3faf309b273a9dbd	0.06091770986432319
222	0xbfb883d2b4e1c0e9	-0.09576146045742785
223	0xbfa5c51dab893c6b	-0.042519499959433237
224	0x3fa000441226a7ac	0.0312520286709764
225	0xbfb0a7b8730a5f66	-0.06505921181303406
226	0xbf9f3077ec1d7104	-0.030458329950634258
227	0x3fa3d76ae79183e2	0.038752880828503825
228	0x3fbcd9fc34ba9b6f	0.1127011898739576
229	0x3fc1c908d921addc	0.13894758798720275
230	0x3fa54f139fe70996	0.04161893202719395
231	0x3fa2685dbaa88107	0.03595250037710867
232	0x3f9404066bb4aa96	0.019546604465328153
233	0xbfb0e820ba52c121	-0.06604198979289723
234	0xbf2b539b11758a9a	-0.00020848529741631234
235	0x3fac3b92e6ac7d1d	0.055142012270375164
236	0x3fc68d8ab56c0ebb	0.17619451387883153
237	0xbfaa4202918282af	-0.05128486658327824
238	0xbfba4e1aa69d1da5	-0.102754274060422
239	0x3f95e39e5d282751	0.021376108585207835
240	0x3fc8145631815c31	0.18812062661410914
241	0xbfb43d92cb5137e4	-0.079064535749438
242	0x3fa9fcdb45905fc1	0.05075726722878882
243	0xbfbeb4986ae41112	-0.11994316682472952
244	0x3fb169387f96b84c	0.06801179041824063
245	0x3f8f82e615aa462b	0.01538638833634128
246	0xbfb46382a64467fc	-0.07964340743311021
247	0xbfb73e199e4749b0	-0.090791321890072
248	0xbfa5d51206a89378	-0.04264122325211067
249	0xbfb97419bf2566c6	-0.09942780415203875
250	0xbfbbde1411c4b596	-0.10885739740179753
251	0xbfb4951f9717424e	-0.08040044249288167
252	0x3f7a6f58db4915f8	0.006453845115691241
253	0x3f80d1844913f1df	0.008212121467743692
254	0x3f909e1fa16c026a	0.016228193499957667
255	0x3fc27a9b5f918c4c	0.144366666473703

layer_3.weight f8 [1, 256]
0	0x3faa8c0c949405e4	0.051849740159024355
1	0xbf91e559674288b2	-0.017476460387691524
2	0x3fba7b4ed631ecc4	0.10344403008814412
3	0xbf9f2df4b18aadb9	-0.03044874509457227
4	0xbf663f10e904f27c	-0.0027156191137279167
5	0xbf69608694ad8ce5	-0.003097784855911822
6	0xbfc81273815c7132	-0.18806308571300573
7	0x3fa49f0f6a1bc1c9	0.04027603311795109
8	0xbf4bb525fe1f39b6	-0.0008455691824965003
9	0x3f79109f745821ab	0.006119368428251819
10	0xbf97105890a66e9e	-0.022523292378180508
11	0x3f78caa968a05c1c	0.006052648308489086
12	0xbf85da07cc44962c	-0.010669766350996111
13	0xbfa456a6d8e44664	-0.03972360036472081
14	0x3f752fe0210c7cda	0.005172610763820995
15	0xbf6e3b375cd2b7e5	-0.003690345888194268
16	0x3f9932e72f3e3261	0.024608242281419005
17	0xbf5ab91800000000	-0.0016310438513755798
18	0x3f9e76de80000000	0.02975032478570938
19	0x3f8754b5d4cf6ce8	0.01139204078383789
20	0xbf78839a0c767377	-0.005984880211511326
21	0xbfdd35f9c13f07fb	-0.45641940948200926
22	0x3f655639a84225ad	0.0026045919531198698
23	0xbf83857ac70ac631	-0.009531935881884031
24	0xbf7fccd776303f69	-0.007763711592829605
25	0xbfbaceb586e70381	-0.10471663039699132
26	0xbfa6bb7a40000000	-0.044399090111255646
27	0x3fa5eae73e04fefe	0.04280779487680596
28	0xbf3d9f465079e804	-0.00045199839266951724
29	0xbfa3a940895b179e	-0.038400666014737114
30	0xbfb04bc92a47cfca	-0.06365639955748673
31	0x3fc06247daef97aa	0.12799928846578484
32	0x3fa82d1360fd8af3	0.047218900289200415
33	0xbfcdbb96d5c7c53a	-0.23228726805204208
34	0x3fe0904ae106f2c2	0.517613830095421
35	0xbfafbd48d5ab319d	-0.06199100120793164
36	0xbfd810312bad37c5	-0.37598828568740955
37	0xbf5035569b183d82	-0.0009892793426649897
38	0x3f974b7f6bf91805	0.02274893852725059
39	0x3f8ae05833b250ec	0.013123215749410076
40	0xbfb44931c77de323	-0.07924185867694837
41	0xbf688f529eded574	-0.0029980291064599044
42	0xbfb96793393f3b02	-0.09923668048507397
43	0x3f586801c3fe6698	0.0014896409265702567
44	0xbfa86aadd9f0bc91	-0.04768889699368473
45	0xbf8609a147a658e7	-0.010760555266454875
46	0x3f75bc03f7807b57	0.005306258673981676
47	0x3f7a927258d8db57	0.006487318676184759
48	0x3f6c4887d0e30378	0.003452554002337068
49	0xbfd79f0a207ad620	-0.3690820042787397
50	0xbf90e16a551fe9a7	-0.01648489136275946
51	0x3fa1eb91cce1953a	0.03500037790289885
52	0xbfc33fdd3175e0e5	-0.15038647570668853
53	0xbf75993bf09ee677	-0.005273088589029854
54	0x3f9f4977e747c608	0.030553697100861782
55	0x3f768c525a004381	0.005504914937788708
56	0x3fb54bf02df5cc51	0.08318997499536464
57	0x3f55f83188c2630d	0.0013409122212008657
58	0x3f7da5b994339c70	0.007238125722529451
59	0xbf63f3bb419b581f	-0.002435556158938659
60	0xbf76ef88d35c12a5	-0.005599531626789532
61	0xbf9750dcadcaedb7	-0.0227694016527786
62	0x3f8217988b02c77c	0.008834068052553816
63	0xbf81d773d6f49bde	-0.008711724278851859
64	0xbf9291d28b38c0fd	-0.018134393451135534
65	0x3fb738db4c1f53ef	0.09071131332832726
66	0x3f67a2337b116e1d	0.0028849606974696977
67	0xbfb4ab72c9f2f8f4	-0.08074109487913345
68	0x3f96eb44903274ef	0.02238185052975877
69	0x3f69bddef227fca0	0.003142295304541756
70	0xbfc44e2801f20cfa	-0.15863514037128096
71	0xbf6d5d1e406a08c7	-0.0035844412662423305
72	0x3fae5b8d214f3a06	0.059292230907534146
73	0xbf6212bf0270e310	-0.002206204476831515
74	0x3f90105329ce1a96	0.015687274386005777
75	0xbf5e37cfb6464b61	-0.0018443611562346184
76	0xbfc8074ccb1e9050	-0.18772277753771727
77	0x3f91cf4423a827aa	0.017392220188447695
78	0x3f468c96eb3288e0	0.0006881462963017858
79	0x3f612623a839ffae	0.0020933815411012446
80	0x3f82ca97108e271e	0.00917547244332045
81	0x3f9a767f89e4397c	0.025842659751157168
82	0x3fc5c4c64a610a16	0.17006758338727995
83	0xbf6d1b98f3c1c581	-0.003553198561399185
84	0xbfe37a79933d539d	-0.6087005496761894
85	0xbf9c068489e4fed0	-0.0273686131633884
86	0xbf9c4d9ef0a789fb	-0.027639850080854327
87	0x3faf27cc2399d337	0.06085050520497364
88	0xbfcb5ad3388395b4	-0.21370926150772862
89	0xbf80fb90b069df01	-0.008292322524752207
90	0xbf96d48196f16075	-0.02229502185613837
91	0x3f57dc1ee5a02d39	0.0014562894562029762
92	0xbfa4023715028025	-0.03907940036265271
93	0x3f73b06c501bcd2f	0.004806922051773284
94	0x3fe257eae86e6ed3	0.5732321300196993
95	0xbf81f9de0318b000	-0.008777365178580965
96	0x3f67dd43ab4909fc	0.0029131242429525344
97	0x3f90e1f4b034c5ad	0.016486953024644247
98	0x3fb46f981b2bd31d	0.07982779181822904
99	0x3f8c5feec6ecced1	0.013854852147779624
100	0xbfcdcec7ffae9e88	-0.23287296280362946
101	0xbf7cbb810933b63d	-0.007014755293523187
102	0xbf5df44a1280cd08	-0.0018282626497352922
103	0xbfd670e18705a128	-0.3506397074293255
104	0x3fb255da28efe3d1	0.07162250041427788
105	0xbfabccb58709ee98	-0.05429618142531217
106	0xbf921fd9fc50584e	-0.017699628853812314
107	0xbf6d470164844949	-0.0035738970947331345
108	0xbfc365026055b871	-0.15152005866861232
109	0xbf8fa0c62b738050	-0.015443371010803869
110	0x3fa489b9aa78254e	0.04011326032566363
111	0x3f8b8b505c1ad55e	0.013449313937011705
112	0x3f99553a82136194	0.024739183606330054
113	0xbf9a988a8ca7ae5f	-0.025972523531818555
114	0x3f616ca690159aa2	0.00212700397303263
115	0xbf65775bf3d26bbe	-0.002620391459072973
116	0x3fc50049084c4fad	0.16407120614223683
117	0x3f9b1aa4c5ed06bf	0.026468824940144794
118	0xbf815a35f659f712	-0.008472844677494904
119	0xbfc11ebead68fbba	-0.13375075785913088
120	0x3fa65a82da16f75c	0.0436592951987069
121	0x3fa552c24384f7b2	0.04164702486239892
122	0x3f87eee945897e1a	0.011686155733683857
123	0xbf95689e60409813	-0.02090690100171606
124	0x3f886b6f147c86e5	0.011923663914390878
125	0xbf92caf5e7c27f1b	-0.0183523581223418
126	0xbf957343c763f74f	-0.020947512669401033
127	0x3fbebfb4cc5e28d8	0.12011270513008598
128	0x3f9b7759d53e92e8	0.02682247509041505
129	0x3fab8f448dd22660	0.0538274214860166
130	0xbfa7f05b7eb02b3c	-0.046755656447280164
131	0xbf6e5e08449de835	-0.003706947468285394
132	0x3faa27cef56c631a	0.051084964236173216
133	0xbf9e6e009a75497b	-0.029716500689866514
134	0xbf86070afb1052d2	-0.01075562075315287
135	0xbf7eda06d7e0adee	-0.007532145244151673
136	0xbfdec5eb451a059d	-0.48083001850326373
137	0xbf9533fed662959e	-0.020706159434345055
138	0xbfb2070a0b2faebe	-0.0704199101743894
139	0x3fa431026baff418	0.039436412473129845
140	0x3f80a5d4b41cf761	0.008128797289483182
141	0x3f8b1a71ad231864	0.013234031769013117
142	0xbf49c81233380a9d	-0.0007867897861049859
143	0xbf9a9acdffc42269	-0.025981158004500324
144	0xbfc1203c8631914e	-0.13379627754614848
145	0xbf8305827401a007	-0.009287852444870749
146	0xbf7339ce532c5532	-0.004693799931165631
147	0x3f8a1433329bbfdc	0.012733840925164878
148	0xbf753447bb601f0f	-0.005176811411736328
149	0xbfcdf57ebe951098	-0.2340544157579003
150	0x3fb957b7c6c789a7	0.09899471858037732
151	0xbfd7a32ee0dd64ff	-0.36933490714507394
152	0x3f532d903355c207	0.0011705311020159274
153	0x3fa90015d49fe0e8	0.04882877560152271
154	0x3fbfb903ced6e88f	0.1239168529490675
155	0x3f7e505ce4c53486	0.007400858751066447
156	0x3fdccbffde4d8f25	0.44995114049219104
157	0x3f97bb713a473d73	0.02317597311212922
158	0x3f6bbffa0b154130	0.0033874400766437315
159	0x3f56e9c80fd7db3a	0.0013985112885827725
160	0x3f8dc7fd0f3b2b9b	0.014541604068105054
161	0x3fb6c2cfa0878008	0.08891008061573313
162	0x3fe211f33c0a14d2	0.5646911785740036
163	0x3fa643225e8179d8	0.04348094371447403
164	0x3fa0840ebf255871	0.03225751956294765
165	0xbf9bc7447138f9db	-0.027127332125241082
166	0xbf8ef9a871fd6e43	-0.015124622324655173
167	0x3fa9f725e9705056	0.05071371531099149
168	0x3fc48f792014d5bf	0.16062845293497038
169	0xbf887aca16db897a	-0.011952952215726443
170	0xbfb384c498fdf332	-0.07624462828784997
171	0x3f29d84079429f8d	0.00019717967064036523
172	0xbfc045f49d545239	-0.12713487321947683
173	0xbfc729eb3b67d834	-0.1809667625490775
174	0x3fa9f8107e21f376	0.05072070636467789
175	0xbf935e09dae6ba4c	-0.018913415895150984
176	0x3f88d939fde03d04	0.01213307672517639
177	0x3fb4db4fa1b45c16	0.08147142122139459
178	0x3f53054be677bdad	0.0011609307492753504
179	0xbfb6b2510c123d9d	-0.08865839523990933
180	0x3f8259b83171a8f9	0.00896018887415949
181	0xbfdaa7052598b17b	-0.4164440982010757
182	0x3f81a04be8b40dda	0.008606522597353217
183	0x3fad9105caa4db14	0.057747059809505924
184	0x3f56730a58ac8fd8	0.0013702012099168128
185	0xbf593435e25b36a6	-0.0015383268559391676
186	0x3f94a5ceda67b4ea	0.02016375740088431
187	0xbfaa7d597177fba1	-0.05173758993259204
188	0xbf5dbb429947c1a0	-0.0018146658304623933
189	0xbf72e9692edb4194	-0.004617129203055365
190	0x3f92ab75448e392c	0.018232185658740338
191	0x3fc79252b626b4e4	0.18415292638875436
192	0xbfd32d5e52280bb5	-0.2996440698918222
193	0xbf9fdc20deb5d70d	-0.031113160699042065
194	0xbf8f7417faf36c30	-0.01535814985839154
195	0xbfc40281cb6f2671	-0.15632650788602434
196	0x3f862d06882bb5ae	0.010828066855050302
197	0x3fdcdc9dbe11c129	0.45096534310779873
198	0x3f8671a4271736a9	0.010958940928414167
199	0x3fb6ead8d5fe0485	0.0895209810678513
200	0xbf4d8e3fbe47f11b	-0.0009019671675214754
201	0xbfa092ab02da62f0	-0.03236898813083211
202	0xbf8a090e1200067d	-0.012712583469695499
203	0xbfd0ed6fc2ba7a10	-0.2644919778485084
204	0x3fb30f4173749af7	0.07445153301942385
205	0xbf8fcf0074490f33	-0.01553154330134241
206	0x3f3212238e4345ff	0.0002757393651907358
207	0xbf8f5d90140f700b	-0.015315175640289188
208	0xbf903802e38b6c82	-0.01583866609403773
209	0x3fb2587445538df4	0.07166220371760074
210	0xbf755d2b772ee186	-0.005215806758251401
211	0xbf9bacfe75ab3b34	-0.027027107173860546
212	0xbfa33ddc2d3d02ea	-0.03758132984376579
213	0xbf5c48500091a1c6	-0.001726225020570836
214	0x3fbd59b48db7efe0	0.11465004405903256
215	0x3fc21d3903473cc0	0.14151680622169316
216	0x3f8a5c53e643a17b	0.01287141367397803
217	0xbfc8e9163f1f4f8c	-0.1946132477011101
218	0xbfe26f4fe04ad7d8	-0.576087892600067
219	0xbfc20b68459ae241	-0.1409731235378491
220	0x3fa02e7f9260c933	0.03160475408403087
221	0xbfa8d410231fc5e7	-0.04849291256676818
222	0x3f94d0c45a1c3837	0.020327632903949868
223	0xbf7ad329845a4841	-0.006549036193648717
224	0xbf65f352e4f6498c	-0.002679502394763838
225	0xbf791164967fd46f	-0.006120102807462321
226	0xbfa0d371d80b7f86	-0.03286319505946182
227	0x3f4c1127980eec96	0.0008565371828050002
228	0x3fafd13a29f8b5a1	0.06214315187785791
229	0x3fe8c017a51ad39e	0.7734487747862777
230	0x3f90ad51d6f48eae	0.016286162133055164
231	0xbfa06399348b3103	-0.032009875930812746
232	0x3f72ae36a68b5055	0.004560674170267805
233	0x3f95132bd852bbd4	0.020580945089644434
234	0xbf77dfaac7b11345	-0.0058285399528060266
235	0xbf548b3f68e91adf	-0.0012539023624797347
236	0x3fae9659067cab65	0.059740812341565065
237	0xbfa8aa553c9ce42a	-0.04817453732398065
238	0xbfa36a159d766258	-0.03791873500012305
239	0x3fdfa211c7afc7c7	0.4942669344010224
240	0x3fb1df130f929eff	0.06981009607499898
241	0xbf7d426f87846eb4	-0.00714343610914241
242	0x3fe61645cf32248c	0.6902188345712985
243	0xbf93d83d8c244f79	-0.01937957923753639
244	0xbfbd002e34f644a3	-0.11328400414483268
245	0x3f0e1d51cae1efdd	5.7438906297030175e-05
246	0x3fa05ca74055cc88	0.03195688877431119
247	0xbf8cdce92c6b5d8a	-0.014093228977272405
248	0xbf96fccc152b3017	-0.022448719780001705
249	0x3f81f0cdf32813a8	0.008760079367684373
250	0xbf5fea2472e16ec7	-0.0019479137368056275
251	0xbf899230619da849	-0.012485864619254399
252	0x3f8dfa5407f6a1be	0.01463761948873887
253	0x3f7afeb5190e54d9	0.006590564168523738
254	0x3f4a9e00a528f458	0.000812292399423274
255	0x3f944f5ce413e819	0.01983399526668714

layer_3.bias f8 [1]
0	0x3fbfa8d8be9bed25	0.12367014554540796
