saved_checkpoints/BasicModel_80_valak.ckpt (torch, 823770 bytes, 18 tensors)

layer_1.weight f8 [128, 5]
000000 00 00 00 a0 cf 60 c2 3f 00 00 00 e0 c4 25 dc bf
       0.14357943832874298 -0.4398052394390106
000010 00 00 00 40 6e fe d5 bf 00 00 00 80 16 8e a3 bf
       -0.34365421533584595 -0.03819341957569122
000020 00 00 00 c0 55 76 d4 3f a8 7e 3d 44 5d 75 c1 bf
       0.31972259283065796 -0.13639417488137906
000030 1c c0 70 f9 3c 32 d1 bf 2a 49 b3 f4 15 04 c0 bf
       -0.26869129523675084 -0.12512468765505363
000040 48 9e 3c 74 1d 00 d6 bf d0 eb be 00 ad 20 c6 bf
       -0.34375702239274064 -0.17287218605437582
000050 19 f2 ac 55 ba e5 d0 bf 3d 0d c9 ff 7f 02 d3 bf
       -0.2640214764285545 -0.2970275876907243
000060 90 e7 93 cb 9a 3d a0 3f 5d 53 5f 43 33 a5 cb bf
       0.031720006323623484 -0.21597901143709466
000070 ea 71 39 b4 e8 24 cc bf 2d b9 00 b2 aa 84 79 3f
       -0.2198763732911993 0.0062300365243983915
000080 4b c9 fd 9e ba a3 bd 3f f3 4e bb e9 ed aa c9 3f
       0.11577955609917472 0.20052884972266546
000090 fc e3 4e af 75 77 cc 3f de ba a3 c9 50 0d b2 3f
       0.22239562091797882 0.07051567957726543
0000a0 d9 3b a9 86 2e 1e ce 3f 6c 84 80 cd 23 94 b8 bf
       0.2352960736775163 -0.09601043479098487
0000b0 2f 80 f6 be ae 31 c4 bf a6 8f 08 89 ff 19 cd 3f
       -0.15776619266853362 0.2273559016331294
0000c0 9a d8 46 5e e6 e3 e9 bf 76 d9 3a bc 7d c2 cd bf
       -0.809069809088004 -0.2324978989688124
0000d0 57 3e 8d af de e7 c3 3f 35 ff d1 8e 0d c8 21 3f
       0.155513606756801 0.00013566174985512607
0000e0 3f fd 01 18 9b 81 da 3f ef 05 64 b1 09 66 de bf
       0.41416051239498936 -0.4749778969126898
0000f0 b3 1d 1b 7c 2c 9a ce bf 59 85 7a e3 ae c7 c0 bf
       -0.2390800100313136 -0.13109384639123325
000100 5d 1d 2d 90 cc 32 de 3f 63 b7 f9 c6 9c d8 c7 bf
       0.4718505294772138 -0.1862979861793362
000110 82 a3 d3 fa d0 53 d1 bf 00 00 00 a0 b9 9a c2 bf
       -0.2707407426337839 -0.14534683525562286
000120 00 00 00 40 84 ff bd 3f 00 00 00 a0 25 78 b9 3f
       0.11718012392520905 0.09948954731225967
000130 00 00 00 80 89 a9 a0 bf 00 00 00 a0 2d 20 dc bf
       -0.03254346549510956 -0.4394640028476715
000140 b6 6c 5d 54 4e 1b d4 bf 04 01 a3 ae de ab ae bf
       -0.3141666244388931 -0.05990501291080544
000150 22 74 d7 5f de 65 b5 3f 33 25 c6 bb d8 ec b5 bf
       0.08358564224131773 -0.08564524254156396
000160 05 36 9d 61 24 57 d6 3f 4d 42 1d 9d c2 de cc bf
       0.34906873257281773 -0.22554810210796675
000170 28 c3 7f ea 2c 4d d6 3f 6c 8d cd af 49 b5 cb bf
       0.3484604158430096 -0.21646996578338518
000180 04 cf 9c 86 a8 bf bf bf d6 b5 47 84 66 8e b6 bf
       -0.12401822363318266 -0.08811035851950719
000190 00 00 00 20 6c c5 c6 3f 00 00 00 e0 7b be db bf
       0.17789985239505768 -0.4335012137889862
0001a0 00 00 00 c0 a4 af da bf 00 00 00 20 36 22 d2 3f
       -0.416970431804657 0.28333809971809387
0001b0 00 00 00 e0 f2 92 ce bf 53 0e c5 41 48 40 9c 3f
       -0.23885951936244965 0.027588967336909253
0001c0 33 04 8c f6 85 8b c7 bf 64 ed c7 ab da b7 bd 3f
       -0.18394541300225029 0.11608664220687143
0001d0 3f ff c2 7d ef 83 ca bf d3 dd 1a 6e c4 f4 d8 bf
       -0.20715135231693613 -0.3899394107097269
0001e0 fd 2f a1 8c f0 13 c5 bf e4 24 2c 2b c8 93 a1 bf
       -0.16467100969964568 -0.03433061148650454
0001f0 ae 4f 3f d9 d3 c0 c3 bf e4 50 4b 51 21 9d c6 bf
       -0.15432212932375705 -0.17667023152774342
000200 3f 41 a5 b3 25 7f da 3f 1a 66 e0 50 40 38 c3 bf
       0.4140104536391113 -0.15015415143061334
000210 8a 25 77 f0 a8 b1 b4 bf 57 e0 de 66 50 2e b7 bf
       -0.08083587523210248 -0.09055044661988752
000220 81 01 bf 25 b5 54 ce bf 95 d6 9f f5 6b 33 e4 3f
       -0.23696007102081398 0.6312770650244653
000230 39 c8 20 be 57 59 d3 3f 41 3b 4c 2b 0e dd d2 bf
       0.30232804839318167 -0.29474214771555657
000240 37 a4 5d 7e 12 48 c4 3f 3b 87 9a da 93 ff c3 3f
       0.15844947023586695 0.15623710798268484
000250 00 b6 c1 b2 b8 aa b4 bf d9 2f 0f 04 ec 41 c4 3f
       -0.08073000301529731 0.15826177786072895
000260 73 60 54 42 8e b2 9a 3f bd a0 28 5b 77 ad ce 3f
       0.02607176093906145 0.23966876937016038
000270 a9 63 73 3c fa 5a cf 3f 28 d4 3e bb e3 52 c3 3f
       0.24496391250320684 0.15096708910792356
000280 9d eb 93 a7 89 0c d6 bf aa 60 a4 eb b9 e6 bf bf
       -0.344515241289338 -0.12461435320836026
000290 80 80 0e 3b a7 84 db 3f 80 6d 9e d5 0f 48 d2 3f
       0.42997151152849966 0.28564830647675166
0002a0 25 af 24 e7 de f4 da 3f d1 65 2b 48 cf e3 ad 3f
       0.4211957223185315 0.05837867504096617
0002b0 20 ce 7b a3 2f 92 b7 3f 14 52 93 37 4e 3b f6 bf
       0.09207437268542451 -1.3894788905064432
0002c0 5d ed 25 74 4b 4e ae 3f b5 61 52 32 7f 0f bc 3f
       0.0591910914690412 0.10961146334228185
0002d0 00 00 00 c0 2c 3f ca bf 00 00 00 80 6c 73 d3 bf
       -0.2050529420375824 -0.3039199113845825
0002e0 00 00 00 a0 b3 e6 bc 3f 00 00 00 60 59 ee c7 3f
       0.11289522796869278 0.1869613379240036
0002f0 00 00 00 c0 f3 d7 d9 bf 00 00 00 c0 f2 a1 9f bf
       -0.403805673122406 -0.03089122101664543
000300 00 00 00 60 aa aa c0 bf 00 00 00 00 f4 ae c4 bf
       -0.13020829856395721 -0.1615891456604004
000310 00 00 00 80 e3 7e d2 bf 00 00 00 40 8b 28 d0 bf
       -0.2889946699142456 -0.2524746060371399
000320 7c 90 e7 2e ad 7e f6 bf 51 84 a8 9a 5b 86 c5 3f
       -1.4059268791397974 0.16816277553246775
000330 42 30 18 50 63 63 83 3f a1 66 f3 4f 64 0d c3 3f
       0.009466911203183884 0.14884618667456542
000340 ac 8d 94 65 93 0a c5 3f 00 00 00 80 8c 82 d8 bf
       0.16438524684882105 -0.38296806812286377
000350 00 00 00 c0 00 83 d2 3f 00 00 00 c0 29 3d b3 bf
       0.2892457842826843 -0.07515202462673187
000360 00 00 00 80 0a a0 b4 3f 00 00 00 80 d2 98 cf bf
       0.08056703209877014 -0.24685126543045044
000370 6e 41 93 9f c5 73 d1 3f 69 77 a4 70 c0 2e cc 3f
       0.27269116004483507 0.22017674923057065
000380 21 0f 4b 06 d4 e5 cd 3f 5e fd 1c ed 35 22 c0 bf
       0.2335763006905092 -0.12604402616305327
000390 a1 10 32 e1 21 af d3 bf 7d 46 62 e6 d9 7d d8 bf
       -0.3075642298865749 -0.3826813459246308
0003a0 7c 44 54 e8 a0 c4 c4 3f 62 3d 8a 63 77 3c c8 bf
       0.1622506269855285 -0.18934528694488068
0003b0 b3 e6 56 6f 95 10 9e 3f 6d 02 dc 91 a9 77 a6 3f
       0.029360136910077283 0.04388170152197266
0003c0 68 ec d1 43 3c 9c c5 3f 7c 9d 38 11 ff b0 dc bf
       0.16883042632602785 -0.44830300027611947
0003d0 10 bf 19 7d 32 0e be bf 03 33 66 4a b2 59 bf 3f
       -0.11740413240636038 0.12246240917574984
0003e0 07 69 b7 bb a8 15 d1 bf 4b 7c 91 5f 36 58 d3 bf
       -0.26694696742710317 -0.3022590573581893
0003f0 0c 87 9a 36 3a f8 cd bf 01 fb 3d bd 39 8e 7e 3f
       -0.2341377989405874 0.007459855598311861
000400 e6 9e 23 3c 8f 7a c9 3f 1c c2 7b d3 c4 8a a2 3f
       0.19905271946412667 0.036214972320412125
000410 d3 2f 50 e1 b1 14 ca bf 94 c5 07 34 00 fb cb 3f
       -0.2037565565263991 0.21859743633789874
000420 bd 97 0b e8 82 9b d2 bf 37 7e 1e b6 12 6f c5 bf
       -0.2907416597430446 -0.1674521817449077
000430 bf 55 0c 05 84 42 dd 3f f4 44 dc d9 7e 61 d5 bf
       0.45718479626642855 -0.3340756537955507
000440 b1 23 9f 1e b0 9e 67 bf c5 a5 cc 14 fa 9d a1 3f
       -0.002883285506844101 0.034408392943372536
000450 46 72 25 3a 84 56 d1 bf 40 89 e8 63 2e 16 d1 bf
       -0.2709055488428799 -0.2669788337390351
000460 b2 d4 b7 d2 70 5f 93 bf 5b 18 8b bc 60 61 bb bf
       -0.018918764935695172 -0.10695461848362824
000470 f8 41 a7 9b 19 e0 c7 bf 7c 29 ef e5 c0 94 9d 3f
       -0.18652649021397827 0.028887762102195222
000480 54 8e 18 fe 71 0e d4 3f d4 cc f6 ee f2 6c c4 bf
       0.3133816701322065 -0.15957485836188445
000490 08 e8 05 23 41 23 b8 3f 66 e5 da d5 ca 6a d4 bf
       0.09428794007354224 -0.31901808628352624
0004a0 c4 ee 04 c4 14 95 b0 3f 82 4c bf 7d 87 67 d5 bf
       0.06477479730250041 -0.33444392471319173
0004b0 00 00 00 40 5e b7 a9 bf 00 00 00 a0 cc d6 d9 bf
       -0.05022711306810379 -0.40373530983924866
0004c0 00 00 00 00 b5 43 c0 bf 00 00 00 e0 0a f0 ca 3f
       -0.1270662546157837 0.21045051515102386
0004d0 00 00 00 00 0d 34 da bf 35 2c a0 80 31 58 b4 3f
       -0.4094269275665283 0.07947072401309259
0004e0 45 ab aa 63 46 42 f5 bf db dc c2 38 8f 55 b2 3f
       -1.3286804097394491 0.07161803375025803
0004f0 7c 88 8a ee d5 1f b3 3f b6 16 6f 57 c3 a8 c0 3f
       0.074704523789963 0.1301502396510636
000500 db ae 4a 2a 3c 33 dd 3f bd 5b 1b a0 0b 89 d1 3f
       0.4562521374707395 0.27398958812176116
000510 4a 69 85 a7 e4 81 c0 3f 5e 39 2f e4 54 dd dd 3f
       0.12896402530425127 0.4666340092052418
000520 2f 23 2f 8d de 32 d3 bf 9f 85 57 22 fb de a9 bf
       -0.29997981822502856 -0.05052933496677813
000530 32 e3 ca 2f 02 c6 ab bf c0 88 cd 62 2e 64 aa bf
       -0.054245060285614946 -0.0515455718621225
000540 cb 62 cf d8 ac 8d e0 3f 92 ab fc b7 05 56 bb bf
       0.5172943338939943 -0.10678134672040887
000550 d2 8c 6c 5a 00 15 da 3f b1 32 c0 90 4b 37 9a bf
       0.4075318224951846 -0.025601559362302854
000560 10 b3 61 6e 0b 08 d3 3f 6b 7e 8d 24 59 d8 ca 3f
       0.2973660066552819 0.20972742352295212
000570 21 8e 10 c9 8e d7 a3 bf de 3e c1 f3 39 99 c4 3f
       -0.03875395016100592 0.16092609788983386
000580 7d da 6c e6 55 37 c3 3f cb 43 88 8c e9 95 aa bf
       0.1501262068865862 -0.0519249900863837
000590 a3 d3 35 4f 53 ae 5c 3f 1a 1f 68 3f 3d 75 ed bf
       0.0017505467957026142 -0.9205614317333783
0005a0 e4 0f 58 6e fc 3f de bf 6b 47 d8 74 ca f6 c2 3f
       -0.47265539909153476 0.14815645890535775
0005b0 28 66 a8 bd 70 99 84 bf 27 4d a6 b6 28 01 be 3f
       -0.01005828932561588 0.11720518550128088
0005c0 df df 26 e9 e2 1a b8 3f 00 00 00 a0 96 38 c5 bf
       0.09416025345024036 -0.1657894402742386
0005d0 00 00 00 e0 48 4d d3 bf 00 00 00 e0 b7 d9 c9 bf
       -0.301592081785202 -0.20195673406124115
0005e0 00 00 00 60 d5 ab 7a bf 00 00 00 80 75 ce a7 3f
       -0.006511529441922903 0.046497032046318054
0005f0 ff 0b 6b 9d 75 a3 f5 bf 2e a8 d7 34 58 9a b6 3f
       -1.3524070881983332 0.08829261102769756
000600 df b0 68 e4 3e 0a bf 3f 0c d2 75 9e 16 80 b4 3f
       0.12125008655920365 0.08007947319658387
000610 7c 22 f8 a6 14 b3 c3 3f 61 0c cc aa 87 51 b9 3f
       0.1539026084212941 0.0989002983078975
000620 5e f9 ad 72 fb fe c9 3f d0 f6 73 30 b1 1a aa 3f
       0.20309393977727103 0.05098489490954494
000630 c0 29 e5 12 39 e5 b7 3f 57 dc 12 11 54 40 c2 3f
       0.0933414145594389 0.14258814653087157
000640 00 00 00 00 8d 06 85 bf 00 00 00 e0 b9 23 b0 3f
       -0.010266400873661041 0.06304513663053513
000650 00 00 00 a0 41 e8 cd bf 00 00 00 a0 ce 3a a6 bf
       -0.23365040123462677 -0.04341741278767586
000660 00 00 00 60 80 9a b1 bf 53 1a 26 a3 c7 2d cc bf
       -0.06876375526189804 -0.22014708963634408
000670 36 f8 da ea c4 c5 b3 bf d0 4b da 70 5b 0e d4 bf
       -0.07723646863721076 -0.31337629338048334
000680 52 09 cc ec 59 43 c6 3f e4 af ce 42 0c 3f 91 3f
       0.1739303976283489 0.01684207113036952
000690 00 00 00 e0 6b 9d ac 3f 00 00 00 20 52 26 b5 bf
       0.05588852986693382 -0.08261597901582718
0006a0 00 00 00 20 50 f7 d8 bf 00 00 00 80 f0 39 cf 3f
       -0.3900947868824005 0.24395567178726196
0006b0 00 00 00 e0 59 ef cf bf 1c 30 58 bc 72 cd 83 bf
       -0.24949191510677338 -0.009669205067460544
0006c0 94 92 92 70 1e 77 c5 bf 66 f9 40 31 4b 38 d2 bf
       -0.16769772049623966 -0.2846858960146136
0006d0 9b be a7 58 c7 fc c3 3f 32 32 0f 13 b3 a5 ce bf
       0.15615169361943945 -0.23943174772866055
0006e0 46 b5 7e 77 57 15 e1 bf f0 38 ca 61 64 72 ca 3f
       -0.5338551839719592 0.20661597037219037
0006f0 eb 60 b3 31 a3 12 c0 3f fe 36 50 27 e0 cc af 3f
       0.1255687706641376 0.06210995178126487
000700 bf e3 55 88 ef 06 c5 3f 00 00 00 20 23 0f d5 bf
       0.16427415997512004 -0.32904890179634094
000710 00 00 00 20 64 d7 b4 3f 00 00 00 60 0b 22 c9 bf
       0.08141160756349564 -0.19635145366191864
000720 00 00 00 20 41 6d d2 bf 00 00 00 20 68 2b be 3f
       -0.287918359041214 0.11784983426332474
000730 32 6e 21 aa e4 be d4 3f af 09 06 ea 08 37 d4 3f
       0.3241511975699921 0.31585905889383076
000740 19 c4 7d 0f 36 74 d0 bf 32 22 61 ed 5a bd c6 bf
       -0.25709296715564417 -0.1776536616400946
000750 36 95 a3 3c 99 42 d6 3f 1c 51 b4 41 ae bc d7 bf
       0.347814854829568 -0.37089115539971984
000760 2b a6 39 bf 41 8e cd 3f b6 f0 5c ec 10 67 ad bf
       0.23090383374373977 -0.05742695699015725
000770 d7 08 0d 94 e8 93 92 3f 6b 35 a7 4f 62 3e c8 3f
       0.018142351185141372 0.18940380944551846
000780 74 ca ab a9 df e1 c6 bf 66 5e 6a 0c 26 2c b7 3f
       -0.17876811775893808 0.090517404585961
000790 0f 34 af c1 7e 48 bc bf 6a ec 00 b3 39 71 d1 3f
       -0.11048118809340245 0.2725357292253593
0007a0 50 36 1f dc 2f 3b d9 bf 2c 01 69 38 67 a0 d8 bf
       -0.39423748489648336 -0.38479023464971607
0007b0 d5 4e 34 19 63 61 d0 3f 4c 85 fa 5d ed 2a e0 bf
       0.2559440370689406 -0.505240138580271
0007c0 cb 66 6b df 8d 18 c4 3f 35 48 8d 1c b7 e1 b3 3f
       0.15699933442265598 0.0776628918368097
0007d0 6a bc 1d d5 15 d2 d2 bf 21 13 1e 86 19 50 df 3f
       -0.29407258808254844 0.48926389787111374
0007e0 75 31 81 47 7c f3 cc bf be be 6e f7 1d 20 d3 3f
       -0.22618058673323174 0.29883526957835815
0007f0 23 06 98 30 3c 5e d6 3f 4a 83 25 d5 12 40 b2 bf
       0.34950165505878966 -0.07129018501065079

layer_1.bias f8 [128]
000000 00 00 00 40 f0 b6 d9 bf 03 bc ee ad 3c d8 e0 3f
       -0.40179067850112915 0.5263961217041245
000010 a8 17 9d 17 2d fe be 3f 49 b0 45 41 ad e8 d9 bf
       0.12106592012886941 -0.4048264634536776
000020 db d1 ee ef ba 38 ab 3f 16 b8 fd 94 b9 07 93 3f
       0.053167192257578676 0.018584155768103093
000030 4c ff 02 ac e7 42 d1 3f 00 00 00 e0 c1 80 c5 bf
       0.26970855520265924 -0.16799186170101166
000040 f5 8b bd 00 76 2e da bf 50 88 45 9b 95 d4 cb 3f
       -0.4090857512694009 0.21742506105062143
000050 00 00 00 a0 9e 79 d9 bf 01 46 63 a9 3d 36 bc bf
       -0.39804807305336 -0.11020264993137376
000060 2b 50 5c a9 6a a0 c4 3f 7d c9 7a 31 27 a4 ca bf
       0.1611455275493666 -0.20813455501554393
000070 d5 2c 99 4f 89 f8 c2 bf 86 37 9f 02 57 65 dd bf
       -0.14820972811353408 -0.45931029563950465
000080 2d 33 4c 64 49 cc cb bf e1 7f 4c bb 0d 04 c2 3f
       -0.21717183492037276 0.14074870725107672
000090 00 00 00 e0 12 66 d3 bf 00 00 00 e0 86 29 ae bf
       -0.30310508608818054 -0.05891057476401329
0000a0 72 30 82 3f f2 31 b1 3f 00 00 00 60 0c ea d6 bf
       0.06716836977483512 -0.3580351769924164
0000b0 bd fc 55 74 b8 b7 c1 bf 01 54 0b b1 19 b3 9b 3f
       -0.13841920547927158 0.027050401144908424
0000c0 38 d8 61 89 93 a6 85 3f 89 38 81 f5 9e 76 d6 3f
       0.010571625356743039 0.3509900472171315
0000d0 c5 eb 3a a2 11 01 db bf 93 61 7b ec d6 65 e0 3f
       -0.42194023936070507 0.5124315851963267
0000e0 78 90 0f c8 d9 6e a1 3f 0d 34 f1 86 eb 1a d9 3f
       0.034048848792537834 0.39226806810330644
0000f0 00 00 00 20 6b 87 c8 bf 46 3e 7d 50 2c b2 bd 3f
       -0.19163264334201813 0.11599995579785469
000100 6b 00 ac 1f 66 2e d8 bf 6b 5c 67 cf 36 a2 d0 bf
       -0.37783196537930647 -0.2599007630755696
000110 ea 8e 9b 37 bf 0e d7 bf 96 a3 1c ae 04 51 b4 3f
       -0.36027508192476765 0.07936124087122062
000120 81 9d 88 1b c3 83 c3 bf 00 00 00 c0 39 8a 84 bf
       -0.15245856136719385 -0.010029269382357597
000130 d6 1c 71 79 12 2d b3 3f 29 08 b5 99 d1 85 d5 bf
       0.07490649666680169 -0.33629264841522627
000140 00 00 00 e0 49 a4 cb bf 35 ee 11 43 b7 a5 cd 3f
       -0.21595118939876556 0.23161974692253443
000150 00 00 00 20 24 34 d3 bf 06 5f 90 b9 62 69 d2 3f
       -0.30005744099617004 0.28768222924689757
000160 00 91 21 8c 82 50 c0 3f 00 00 00 20 81 da d9 bf
       0.12745696871127876 -0.4039614498615265
000170 bf 89 db 23 08 70 c9 bf 39 9e d9 b5 ce a3 db bf
       -0.1987314391217989 -0.4318730140571208
000180 e8 d8 40 28 fb 77 d3 bf 6b 1e ad d9 7a ae a1 3f
       -0.30419806414592054 0.03453430087261896
000190 fd dc c1 d4 35 b2 cb bf 8e 9e 15 5b 2f ec a1 bf
       -0.21637604607142427 -0.03500507342215285
0001a0 00 00 00 a0 cd c5 d8 bf 5a 45 31 dc 83 3a cc bf
       -0.38707295060157776 -0.2205357384832876
0001b0 38 a5 82 a5 a8 ed 93 bf 88 cc 06 8a 55 c1 dd bf
       -0.019461283781003064 -0.46492517928272337
0001c0 97 6c 4d 56 e7 08 d6 bf 06 09 cd 52 a5 e2 a2 3f
       -0.3442934363171814 0.036885420186552095
0001d0 00 00 00 a0 e5 d2 d2 bf ae bd 23 85 fa 9c d9 3f
       -0.2941221296787262 0.4002062130157026
0001e0 51 3d 64 3f 62 b2 cb bf 27 bd f3 0a 14 07 93 bf
       -0.2163813409356217 -0.018581689041579665
0001f0 e5 34 c2 f3 51 f1 dc 3f 90 ba d7 f3 86 ce bb 3f
       0.4522290115790624 0.10862010434332547
000200 d4 04 7c 3c a8 8d cf bf 9b 82 4e e8 ed 5c cb bf
       -0.24651053384153576 -0.21377347796535137
000210 00 00 00 00 7b a1 84 bf 71 f4 3e 88 75 c0 ce bf
       -0.010073624551296234 -0.24024838593132672
000220 29 86 f3 ee 9b 3f d4 3f 1e 08 de a8 41 79 d0 3f
       0.3163823922642189 0.2574009083838308
000230 96 38 8b 84 88 6f 91 bf d4 d5 af e6 3c c2 d0 3f
       -0.017027028169473178 0.2618553402711232
000240 97 41 7a 36 44 0a a4 3f 1a fb ba 47 1e 2c bf bf
       0.03914082684525793 -0.12176694155912707
000250 08 c3 f7 cc 3d dd cb bf ac 2a 1b 20 9b 7f cc bf
       -0.21768925197786637 -0.22264422481233248
000260 82 80 3b 2d 9a 95 c1 3f 0b f4 24 52 bf 2d d9 3f
       0.13737799843420723 0.3934171964827448
000270 80 c3 38 a0 5c 62 6b 3f 07 ea 2d ca a0 0c d3 bf
       0.0033428010081241744 -0.2976457571418511
000280 49 74 d2 55 6c 70 c7 3f 0f 2d 8b fa 68 34 bb 3f
       0.18311838331729494 0.1062684642485474
000290 0f e6 c1 fa dd 84 be 3f 38 4f 95 73 1e 81 cb 3f
       0.11921489116675608 0.21487789767945187
0002a0 79 c4 a7 b5 a4 52 db 3f a8 6c 26 3e 0a e4 b7 bf
       0.42691915263919317 -0.09332336442314448
0002b0 00 00 00 60 72 be d7 bf 5e 4d 76 86 1d c9 cc 3f
       -0.37099894881248474 0.22488755288632495
0002c0 28 66 55 c3 92 99 b4 bf 00 00 00 e0 98 ee 84 bf
       -0.0804683424843452 -0.01022071298211813
0002d0 ec 5e 3f de 0b cf cb 3f e8 f2 be 01 ab 48 bc 3f
       0.21725605346613663 0.1104838256132542
0002e0 1a 7a c3 b8 a9 23 cf bf 39 e7 7c b5 c9 f5 8f 3f
       -0.24327584764155646 0.015605522013732208
0002f0 d3 8e c6 20 1d b7 dc 3f 00 00 00 20 32 8d db bf
       0.4486763782572158 -0.43049290776252747
000300 d4 04 c8 72 f9 cf d5 3f d5 ae a1 5c 25 7d c3 3f
       0.34081875046838417 0.15225665114427636
000310 19 db d9 4d dc 15 d3 3f 50 50 81 62 5b 0c d6 3f
       0.29820926287304556 0.34450420970575113
000320 d5 4e 5d 6d e7 35 d0 3f 75 b6 88 52 e4 72 c3 bf
       0.2532900398266354 -0.15194372205717213
000330 05 cf 69 fe 67 e0 d5 bf 7c 2c 29 f9 ec 49 d0 3f
       -0.3418216690545111 0.25451206524002834
000340 fd b4 eb fb 86 39 db bf 01 b9 d6 e9 ab 85 ca bf
       -0.42538618661531286 -0.2072043315687964
000350 2e 54 9b a1 13 e8 d5 bf 63 cc c2 9e 36 bf d2 bf
       -0.3422898367110204 -0.29292073730466067
000360 f8 a0 3b af da 4f dd bf 79 ac 8f 2f ce 91 c9 bf
       -0.45799891579237295 -0.19976212808919394
000370 12 c1 d3 45 52 d7 c4 3f 7c d2 e5 a3 ac 3e d7 bf
       0.1628210869744256 -0.36320034032477344
000380 2a 1e ca 0e a4 91 c1 3f 5b 83 d5 2d 2c cd b5 bf
       0.13725710603851954 -0.08516193503375062
000390 59 32 d0 1e 2d 1e ba bf 00 00 00 c0 05 b6 c1 bf
       -0.10202295305516297 -0.13836738467216492
0003a0 00 00 00 40 74 83 dc bf e1 70 d7 ce 2c e4 c6 3f
       -0.44552332162857056 0.1788383493393502
0003b0 2d 49 f6 6c 70 f2 b2 3f 6e 4e 08 9e 8d 38 c1 3f
       0.07401182804304503 0.13453836647441925
0003c0 2e 26 15 be 95 92 b2 bf 00 00 00 80 6e 92 db bf
       -0.07254920855225386 -0.4308124780654907
0003d0 d3 1c 37 63 ae 59 d2 bf de 16 9a 09 6f 7d b2 3f
       -0.286723706140447 0.07222646698400179
0003e0 00 00 00 e0 0b 63 cf bf 75 26 ec 8b 97 65 d0 3f
       -0.24521015584468842 0.2562006822996417
0003f0 08 a5 22 62 ba e9 d7 bf 5e 6c a8 9f 2c fb c1 3f
       -0.3736406286576117 0.14047773166462013

layer_2.weight f8 [256, 128]
000000 00 00 00 80 0d b9 a7 bf 00 00 00 60 3c 8d 92 3f
       -0.046333715319633484 0.018116896972060204
000010 6a 22 cb 2e f2 86 93 bf 00 00 00 c0 e8 4f ab 3f
       -0.019069465738342485 0.053344033658504486
000020 00 00 00 e0 a1 a6 b5 bf 00 00 00 80 95 3c 52 bf
       -0.08457385748624802 -0.0011130771599709988
000030 00 00 00 e0 5f 6f b6 bf 00 00 00 60 1e 94 9c bf
       -0.08763694018125534 -0.027908777818083763
000040 00 00 00 00 92 b7 90 bf a2 6c 24 ea af d9 9c 3f
       -0.016325265169143677 0.02817416063872414
000050 00 00 00 60 64 2f 92 bf 00 00 00 c0 64 57 b0 bf
       -0.017758911475539207 -0.06383351981639862
000060 3e 9b c1 a7 60 06 aa 3f 52 3e 70 78 9f f3 a2 bf
       0.05082990691953747 -0.03701494546123442
000070 00 00 00 c0 f3 c9 9a bf 00 00 00 c0 a7 d7 90 3f
       -0.026161011308431625 0.016447659581899643
000080 6b 31 d8 51 da a0 a9 bf 85 ae a7 bc f6 b7 a2 bf
       -0.0500553345592348 -0.03655978253285944
000090 00 00 00 a0 8a 77 a0 3f 00 00 00 60 39 ad b0 bf
       0.032162029296159744 -0.06514319032430649
0000a0 25 76 5b c5 d6 e7 a3 3f 00 00 00 20 e2 ce a2 3f
       0.03887816580911999 0.03673464432358742
0000b0 00 00 00 a0 28 10 a0 3f e9 82 0b df 62 f0 8d 3f
       0.031373281031847 0.014618656570236381
0000c0 68 9d 0d 6f 71 8b b4 bf dc 62 c5 a7 57 6e 9c 3f
       -0.08025273286113122 0.027764672865802406
0000d0 00 00 00 a0 a1 7a b3 3f 42 aa 32 68 d0 f3 a4 bf
       0.07608995586633682 -0.04092265388438367
0000e0 d8 9b 11 db c1 b6 a6 bf 10 8a 6c a1 ed 8f b1 bf
       -0.044363077155871344 -0.06860242072119882
0000f0 00 00 00 e0 91 f9 84 3f 00 00 00 a0 89 5a a5 3f
       0.010241641663014889 0.04170637205243111
000100 00 00 00 20 f5 11 ac bf 00 00 00 40 51 c1 88 3f
       -0.054824505001306534 0.012087473645806313
000110 00 00 00 c0 5b de a8 3f 00 00 00 a0 01 b4 b1 bf
       0.04857145994901657 -0.06915292888879776
000120 9b c9 67 9c cc 02 ac bf 00 00 00 c0 b1 47 b6 3f
       -0.054708856670816895 0.08703146874904633
000130 e8 c0 89 8f 9b e3 b4 bf 5d 98 fb ff 96 a8 a9 3f
       -0.08159801725719584 0.05011436342992746
000140 00 00 00 c0 52 5c a1 3f 1c 16 a1 8d ff 34 a1 3f
       0.03390749543905258 0.03360746959564784
000150 00 00 00 80 a1 97 ac 3f 00 00 00 60 d1 59 80 3f
       0.05584435164928436 0.007983813993632793
000160 0c bb a8 a9 80 45 9e 3f 00 00 00 a0 1e 36 ae 3f
       0.02956200633542054 0.05900665000081062
000170 51 86 7a 80 32 51 b3 bf c9 23 c3 56 a7 ad b7 bf
       -0.0754577220600592 -0.09249349468440395
000180 00 00 00 40 d5 18 a4 3f 6e 2c a6 21 a6 9c 9b bf
       0.039251960813999176 -0.02696475582483198
000190 b8 b2 57 0d f1 5d 83 bf 3c 0a 45 b5 44 50 a3 bf
       -0.009456523151095339 -0.03772177422299136
0001a0 00 00 00 20 a2 25 8c 3f 00 00 00 40 ec c8 b1 3f
       0.013743654824793339 0.06947208940982819
0001b0 38 94 da d5 5e b2 78 bf 00 00 00 20 2b c0 89 bf
       -0.006029482317591088 -0.012573563493788242
0001c0 00 00 00 40 60 47 9e bf fb 0f dd 57 29 8b 94 3f
       -0.029569152742624283 0.020062108981861098
0001d0 00 00 00 e0 48 93 a6 3f 99 3c 9b 9a 73 fc a8 3f
       0.04409244284033775 0.04880105268750263
0001e0 49 e7 12 7d 4d 0e 8a 3f 6b 4a c9 f6 96 85 af 3f
       0.01272259271569322 0.061566083550719984
0001f0 00 00 00 e0 46 b1 b5 bf c5 e3 66 84 ae bf 81 bf
       -0.08473628014326096 -0.00866638509329388
000200 6f b8 a6 17 e0 f4 a2 bf 00 00 00 00 fd 36 b4 bf
       -0.037024500739207926 -0.07896405458450317
000210 00 00 00 a0 fd 62 a4 bf 00 00 00 c0 aa 39 ab 3f
       -0.03981773927807808 0.05317433923482895
000220 00 00 00 e0 88 bb 93 3f 00 00 00 40 14 3e 94 3f
       0.019270075485110283 0.019768062978982925
000230 5f 5a 8b c9 9f 62 a1 bf d8 7c a5 12 bf 9a a8 bf
       -0.033955567696172244 -0.04805562117211942
000240 00 00 00 40 c1 37 ae bf e2 5d 7e d3 83 77 1b 3f
       -0.05901912599802017 0.00010477773764560426
000250 33 b2 b6 3f d5 97 61 bf de a6 a6 e3 a1 c4 81 3f
       -0.002147594930383323 0.008675827751022987
000260 0c b5 68 c1 ca a4 b0 3f 6f d7 36 1c 09 b4 af bf
       0.06501452657603951 -0.061920437521094544
000270 23 c4 da 13 05 c9 b9 bf 00 00 00 80 c7 78 a7 bf
       -0.10072356924753527 -0.045843347907066345
000280 9f eb 03 19 9e fc 92 bf 1a 3d 8b c6 38 f5 b0 bf
       -0.018541784550489045 -0.0662417874075242
000290 7a c2 01 7c 48 61 a2 bf 22 f8 22 0c 90 c4 b2 bf
       -0.03589846147304328 -0.07331180855086974
0002a0 00 00 00 e0 24 81 95 bf 29 e7 bf 84 55 2f a6 bf
       -0.021000457927584648 -0.04332988019446155
0002b0 00 00 00 c0 b6 35 7a 3f 6d 08 05 14 f2 95 b9 bf
       0.006398881785571575 -0.09994423855553843
0002c0 8a 19 d8 61 0e 18 a6 3f 00 00 00 e0 d1 f1 a1 bf
       0.04315228409182044 -0.03504806384444237
0002d0 a4 db 6d a4 fb 52 90 bf 00 00 00 e0 ce cb a9 3f
       -0.015941554938276106 0.050383057445287704
0002e0 00 00 00 60 57 83 90 3f 05 57 97 37 72 f0 9d bf
       0.016126027330756187 -0.029237541811958163
0002f0 f9 40 8c 30 bb c1 b7 bf 00 00 00 e0 27 cd 98 bf
       -0.09279985366106648 -0.02422010712325573
000300 00 00 00 40 27 5d b2 3f 9a fc 45 c6 1b 3b 9d 3f
       0.07173390686511993 0.02854579351105411
000310 d4 e8 5b f5 70 76 b0 3f 00 00 00 e0 5f 0c b0 bf
       0.06430726995668873 -0.06268882006406784
000320 62 4e cf ae dc 33 ae 3f d8 38 6b 78 2c 28 99 3f
       0.05898942598255698 0.02456731305101631
000330 db c1 79 69 7b 77 8c 3f b6 28 0c 03 15 1e a6 3f
       0.013899768978462504 0.04319825803948289
000340 bd 06 b3 16 07 0a aa bf 74 4c 85 4a cc f9 b2 bf
       -0.05085775520411804 -0.07412411517479872
000350 00 00 00 60 cf a2 a0 3f 00 00 00 80 c1 9e b0 3f
       0.03249214217066765 0.06492242217063904
000360 00 00 00 20 e6 f3 a2 3f 3a fe 22 8f c3 05 a5 bf
       0.03701705113053322 -0.04105960008882588
000370 d2 60 e4 6b fa 9c ad bf 08 d4 34 1a 03 fe 73 3f
       -0.05783827368776574 0.004880916708590817
000380 00 00 00 c0 8e f3 b0 bf 00 00 00 00 16 18 9f bf
       -0.06621639430522919 -0.030365318059921265
000390 98 a7 08 25 55 98 9e bf 00 00 00 80 88 0e ab 3f
       -0.029877977738727773 0.05284525454044342
0003a0 00 00 00 40 2d 54 a7 3f b4 99 7c f4 2f a0 ad 3f
       0.04556409269571304 0.05786275729615245
0003b0 03 8f 42 7e 94 b0 a5 bf 00 00 00 a0 7c e3 4e bf
       -0.042362823879811294 -0.0009426458855159581
0003c0 d5 22 30 7e 4e 75 b4 bf 00 00 00 00 c1 fa 91 3f
       -0.07991495686304557 0.017558112740516663
0003d0 00 00 00 80 af cb b4 3f 00 00 00 20 88 b7 9b 3f
       0.08123299479484558 0.027067305520176888
0003e0 00 00 00 a0 fb 62 b3 bf 0e c6 9e aa dc f7 92 3f
       -0.07572910934686661 0.018523643411475325
0003f0 00 00 00 a0 5b cd b4 3f 0b f2 c1 2b b8 ee b8 bf
       0.08125851303339005 -0.09739256923962374
000400 00 00 00 a0 b2 08 b4 bf 4e 2b 49 f4 de 13 71 3f
       -0.078257717192173 0.004169341006284478
000410 2f ba bf 58 f4 3d 99 bf a6 6e c1 3b 9c 1d a1 bf
       -0.02465040008240232 -0.03342903356016551
000420 cd b9 ce 00 df 96 80 bf a4 bc 2d d4 48 4b ab 3f
       -0.00810026379789699 0.053308750057902615
000430 e8 df 8e 67 63 0c ae bf 00 00 00 00 74 3d a4 bf
       -0.05868826522004139 -0.03953135013580322
000440 00 00 00 e0 60 ae a6 3f ad 53 8c 82 4f 37 b3 bf
       0.04429915174841881 -0.07506272256098497
000450 00 00 00 80 2a a8 91 3f a9 8a b6 61 f0 44 b5 3f
       0.01724306493997574 0.08308317552158918
000460 b5 6a 4d a3 c2 da b0 bf cd df 92 62 c0 0f 89 bf
       -0.06583801733851653 -0.012237074859839847
000470 3f 6f 2a a1 75 f5 a8 3f 02 7a f9 3a 04 6f b4 bf
       0.048747707294039426 -0.07981897773559157
000480 b7 84 64 fe ca fa b7 bf 41 79 74 2e 0c a7 97 bf
       -0.09367054663427409 -0.023098173461329145
000490 00 00 00 c0 81 dc b0 3f 00 00 00 40 88 34 92 bf
       0.0658646672964096 -0.017778519541025162
0004a0 72 98 dc f3 a1 5e a2 3f 00 00 00 80 ef cb a4 3f
       0.03587823964908034 0.0406184047460556
0004b0 ce 88 83 91 ef 07 b6 bf 82 3b 26 88 35 8b be bf
       -0.08605859091361198 -0.11931166242560035
0004c0 c5 1f be 39 d8 b2 b3 bf 4e 58 98 75 22 ce c4 bf
       -0.07694770250066003 -0.16254072896907917
0004d0 00 00 00 60 7f d2 b4 3f 30 68 7e aa e6 ab a1 bf
       0.08133693784475327 -0.03451462584708087
0004e0 e1 d5 3e 81 8d 1e 87 3f 75 f5 f7 7c 6a c6 c1 bf
       0.011288743502386235 -0.13886767484647647
0004f0 00 00 00 c0 d3 6e a1 3f 3a 95 5a 64 3b ef ab 3f
       0.034048669040203094 0.05455957031271415
000500 ae 25 7f 4c 62 fa ac bf 94 d9 d6 6a ca 93 a0 bf
       -0.0565977781657908 -0.03237755350294261
000510 bb 2e 6b 83 e5 9a 92 3f 5d 94 54 77 8f c2 81 bf
       0.01816900839439371 -0.00867187579076239
000520 c1 df a3 cb b9 71 6d 3f 00 00 00 20 ae 31 aa 3f
       0.003594267732406537 0.05116027966141701
000530 c1 a4 7c 96 ab 8d ab bf 22 e5 86 3f 03 4b bc bf
       -0.05381523334501415 -0.11051960278463871
000540 00 00 00 c0 79 35 b1 3f 65 e3 a3 a0 09 1d ac bf
       0.0672222226858139 -0.054909039363286984
000550 00 00 00 20 3a 23 a0 3f 16 b0 00 73 3e bc 96 bf
       0.031518761068582535 -0.02220246865196892
000560 4c 42 9b af 85 40 c7 bf 00 00 00 60 07 76 b2 3f
       -0.18165656160864996 0.07211347669363022
000570 21 0d 2d d2 4c b1 b1 bf 00 00 00 e0 ef 0d 62 3f
       -0.0691116345524745 0.0022039113100618124
000580 00 00 00 40 04 a5 78 3f 34 01 46 dc 65 10 a3 bf
       0.0060167470946908 -0.03723448099026641
000590 a6 b4 87 86 48 f5 8a bf 77 d9 f3 69 eb 4d 89 bf
       -0.01316315327218327 -0.012355651064791513
0005a0 00 00 00 60 bd fd a1 bf 20 ef 35 98 b5 6f b7 bf
       -0.03513900563120842 -0.09154829946595244
0005b0 5d 70 8e e4 6d 1d b6 bf 7f 6b f7 ab 50 26 ab bf
       -0.08638655500402721 -0.053026696197512095
0005c0 07 3a 89 3e 9e f0 a7 3f f1 9e 61 6a fd 78 98 bf
       0.046757645734590673 -0.023899039857865515
0005d0 00 00 00 00 ad 37 b0 3f ca a6 9a e2 7b a6 c2 bf
       0.06334954500198364 -0.14570568623212515
0005e0 8b 2c f4 59 a6 04 8e 3f 6d 28 33 d7 22 0a 8f 3f
       0.01465730630891062 0.01515605181920795
0005f0 15 14 1d 47 d0 a1 a3 bf 13 68 b1 15 a6 5e 95 bf
       -0.038343914681299086 -0.020868868898425385
000600 0f cc a5 12 8f 60 b7 bf 00 00 00 c0 b6 c7 85 bf
       -0.09131712155594605 -0.010634830221533775
000610 00 00 00 e0 35 7d a5 3f bb 37 e1 8b 00 5d a5 bf
       0.04197090491652489 -0.041725174975553135
000620 3f a0 63 0e b2 25 aa bf 99 1a b3 f1 07 5d a3 3f
       -0.05106884408616041 0.03781914544520255
000630 73 9b a8 79 d3 cd b8 bf 0d a3 f9 fe 60 80 9c bf
       -0.09689065666371537 -0.027833476602981345
000640 35 80 36 9c e1 b5 a6 bf 05 a1 d9 d3 79 96 b0 3f
       -0.044356394118267785 0.06479607984659104
000650 c5 56 cd e3 c8 28 84 3f 29 15 47 8b eb 5b c6 bf
       0.009843415691345734 -0.17468017864863697
000660 2f a4 41 f0 b8 1c b6 bf 9d 07 f2 13 10 16 b4 bf
       -0.0863757692874436 -0.0784616516775984
000670 a9 1a 8b 0c 7b 4e a6 bf 1e 41 0e b0 6e 34 b4 bf
       -0.04356750991933229 -0.07892505453333284
000680 b7 70 0e 7c 98 2d a3 3f c3 23 c9 45 f4 5b 9b bf
       0.03745724214897577 -0.02671796489656565
000690 b9 d2 74 10 b4 81 b6 bf 3c a9 20 50 64 56 ab bf
       -0.08791661645666239 -0.05339349249000455
0006a0 d6 d1 07 ce 6b a3 86 bf 0a 12 9e bf 5a 04 8f 3f
       -0.011053888535550376 0.015145024273587122
0006b0 00 00 00 80 3e f2 92 3f 56 cb d1 72 54 e4 9e 3f
       0.018502213060855865 0.030167884357477824
0006c0 d9 40 3a 90 a3 14 b9 bf 00 00 00 a0 d6 66 af bf
       -0.09797117491894215 -0.06133146956562996
0006d0 e7 b9 cd 9e 6a 6c a3 bf b3 60 40 65 81 f7 bc bf
       -0.03793652714272238 -0.11315163347205974
0006e0 e1 29 10 b1 82 af ab 3f 98 19 d8 f6 b3 70 b9 bf
       0.05407341395774146 -0.09937596107929492
0006f0 4a 4a c9 81 34 5c b5 bf 00 00 00 60 67 37 ac bf
       -0.08343818825350371 -0.05511019751429558
000700 18 b0 06 93 b6 30 ba bf 83 5b c3 ca 17 b5 9f 3f
       -0.10230580415253632 0.030964252234152233
000710 cf 22 8b 6d e6 51 c0 bf 0d 5d b1 b7 62 68 b8 bf
       -0.12749939297488885 -0.09534279808700692
000720 52 3e fd 5a 59 0a be bf 30 c1 16 66 30 de b6 bf
       -0.1173454138890915 -0.0893278359642451
000730 dc 8d 0a a1 f6 d7 b0 bf bd 73 e7 09 0b 16 96 3f
       -0.06579533988638481 0.021568462829111946
000740 6b c4 73 78 77 fe b9 bf 95 a0 ee 98 76 ca a4 bf
       -0.10153910341957022 -0.040607172172998286
000750 d3 36 5a fd 15 83 b4 3f 96 5b 78 05 af 01 91 3f
       0.08012521205292993 0.01660798521887904
000760 87 c3 89 f7 e3 cb 97 3f a0 dd 6e 88 5a 3d b1 bf
       0.02323871801712898 -0.06734243231664161
000770 da 7d 0f e6 76 ed 71 3f e1 43 af 27 16 c0 a4 3f
       0.004376854370064598 0.040528004020991444
000780 cc 22 c5 99 80 f0 ad 3f d0 b5 9f 6a 2d 5e b0 3f
       0.058475512285956904 0.0639370332061937
000790 c2 a0 c2 3b 7b 07 a8 3f 00 00 00 a0 78 5b 86 bf
       0.046932078404382974 -0.010916654951870441
0007a0 00 00 00 c0 12 bd ad 3f 94 28 1c 28 10 4b b9 bf
       0.05808313935995102 -0.09880162219283967
0007b0 29 7e 27 da 02 fd b9 bf eb 36 6c 4d 90 f2 b0 3f
       -0.10151689363510087 0.06620122804835275
0007c0 fd f5 c1 aa 78 ad b8 bf 00 00 00 e0 5f ed b1 bf
       -0.09639696282280137 -0.07002829760313034
0007d0 84 f6 3b df ef 70 ab 3f d2 bd 64 73 90 0f b6 3f
       0.05359601593043542 0.08617499177193302
0007e0 00 00 00 e0 90 28 a9 bf 79 55 a4 fa d9 7e b9 bf
       -0.04913761839270592 -0.09959184998691296
0007f0 9d 5e 26 7f b8 c4 ac bf 5d af 82 0a c8 9b c0 bf
       -0.056188359757638674 -0.12975407136161268

layer_2.bias f8 [256]
000000 be d1 57 27 c3 49 b8 bf 12 a3 4d 9a 21 26 a0 3f
       -0.09487552366756 0.03154091843209107
000010 b3 90 37 6d 40 36 c1 bf 6b fa 0d 19 78 a2 90 bf
       -0.13446812947143413 -0.016244770554744308
000020 4c e9 1b 0a 62 42 b0 3f 92 34 30 b5 63 85 b8 3f
       0.06351292368700462 0.09578536199133428
000030 9a 8c 53 b4 09 a3 96 bf 44 5a 9d 00 3b 9c c2 bf
       -0.02210631526112348 -0.1453927758218062
000040 87 fb 34 d6 ed df b5 bf 8c 24 8b 2b 5f 0f aa 3f
       -0.08544813613569434 0.05089852720772922
000050 3a 10 3a ad 65 a7 a6 3f 83 83 c2 8b 8b e7 a8 3f
       0.044245889087534754 0.04864154892971497
000060 03 73 d1 8a 67 6f 92 3f d7 10 51 84 b7 56 b9 bf
       0.018003099296367796 -0.09897944431674276
000070 2f ee b3 5f 8c f4 ba 3f c1 2e 6b 5e 8a 67 b4 bf
       0.10529401146407545 -0.07970490269797904
000080 27 33 ef fb 58 14 96 3f 4e 4e 69 3a db db b7 bf
       0.02156199491200819 -0.09319849182184578
000090 bc 1b c8 b9 d9 2e c5 3f 01 d7 40 03 5c a3 b9 3f
       0.16549226352091562 0.10014891700197028
0000a0 28 4f 9c 1e 44 7b b9 bf af 44 84 5b 1e b5 7a bf
       -0.09953714129761393 -0.006520384391721353
0000b0 47 26 7e fb a6 fa b0 bf 98 57 0f 93 c8 f8 95 bf
       -0.06632465019188159 -0.021456846214128328
0000c0 b7 b9 76 c6 96 94 af 3f 32 d3 d9 8e a8 40 b0 3f
       0.06168051884320696 0.06348660934038433
0000d0 67 dc 56 95 bf d3 80 3f e8 67 fc bd 81 9a a4 bf
       0.008216377968763134 -0.040241293374677245
0000e0 4e 11 69 f9 9f 63 b7 bf a9 fa b9 45 8a cc ab 3f
       -0.09136390532609548 0.05429489232209523
0000f0 54 73 2d fa 99 d2 c0 3f 2d 5d 21 6e 47 13 a0 bf
       0.13142704692554708 -0.03139708728184085
000100 f9 e0 90 7c fc 0e c1 3f f2 a2 14 1c a8 a3 b6 3f
       0.13326984484024942 0.08843470273553658
000110 1d d6 0c e7 f8 a8 bb 3f 4f b9 57 f1 23 19 b0 bf
       0.1080470623099576 -0.06288361208109915
000120 62 e1 37 60 c5 17 ac bf b8 78 8b c0 18 13 92 3f
       -0.054868858333011486 0.017650973083498583
000130 a7 9d 3f 60 a1 83 b7 3f e3 cd 25 88 e9 88 be 3f
       0.09185227012459639 0.11927661489408296
000140 00 75 77 56 77 db 9b 3f f5 a1 6e 62 b6 62 9e bf
       0.027204384472374166 -0.02967343307287425
000150 23 bc 22 e5 8c d3 a9 3f bf dc 26 c6 d5 35 bd bf
       0.050442126246132334 -0.11410270774546215
000160 9d 30 5d 77 66 8b 83 3f 49 e0 eb 6f 44 ec bd bf
       0.009543228643132113 -0.11688640339332425
000170 75 16 7d 5f 22 a4 93 bf a4 94 ec a7 7a 77 b8 bf
       -0.019180810049212533 -0.09557310676298642
000180 f5 49 09 48 6d 3d a8 3f bc f5 ff 82 36 08 b5 3f
       0.04734364990567378 0.08215656946409572
000190 d6 6a b8 9e bc e9 a7 bf 29 34 48 53 a7 15 bd 3f
       -0.04670514523987428 0.11361165793660234
0001a0 52 23 4e 53 43 9c ac 3f e1 5e 77 b7 2f 49 9d bf
       0.05587969200047972 -0.02859949643411042
0001b0 2a fb fd a2 1b 6d a1 bf 3b 91 c2 72 4d a3 9d bf
       -0.03403555264139009 -0.02894326222362163
0001c0 fc d1 a0 4e 88 4a bc bf a9 ab 46 3c 54 32 b4 bf
       -0.11051227492936982 -0.07889296027739924
0001d0 99 b4 4c 85 a6 bf a9 bf c5 0f 5b f6 c9 c2 ca 3f
       -0.050290302059104515 0.20906948594176647
0001e0 b9 69 03 5f 4a 83 95 3f 33 e5 4c 31 2a 87 a9 bf
       0.021008646058229028 -0.04985935069857774
0001f0 93 6c 7f 55 ec e1 b0 bf 1f 78 5c 11 51 71 8f bf
       -0.06594731414172576 -0.015352853147813815
000200 fb 61 54 cf 59 5d 94 bf 7b 7c 68 96 7d 5d b5 bf
       -0.0198873551172216 -0.08345780298303566
000210 00 ef 3d fa cc 8c 96 3f b3 cb 24 f9 79 42 a7 3f
       0.022021487020068342 0.04542905012421929
000220 0d b1 dd 5d d3 c4 a8 3f a9 4f f6 24 08 c0 b7 bf
       0.048376660545587404 -0.09277392294308008
000230 f5 11 ea d5 ef 52 9b bf 45 8a 68 b4 55 27 8a bf
       -0.026683566504759743 -0.012770337646604743
000240 bf bf c3 0d 33 58 a4 bf cd 13 f9 b7 2d 25 bc 3f
       -0.0397354082396073 0.10994230023886971
000250 77 7b ae 86 02 6d 94 bf cc ea ed 80 3d 95 92 bf
       -0.019947089643774753 -0.01814743136808765
000260 be 74 99 ca 8e 61 ba bf 02 af bc 53 aa 4d 9b bf
       -0.10305111356997806 -0.026663457260993624
000270 43 47 24 e6 f3 1e bc bf c8 a7 8d 3d 50 2e a6 bf
       -0.10984730118459844 -0.04332209349998056
000280 d0 77 14 c7 9b 14 ad bf 85 51 09 4d bc 5b b4 bf
       -0.05679785542655191 -0.0795247734143399
000290 0d 1a 5e b5 67 12 8e 3f 23 6b fa c5 d5 22 c5 bf
       0.014683542463683552 -0.16512558142570652
0002a0 2f 38 da 85 c3 99 a7 3f b4 c1 6e 57 2a 40 a2 bf
       0.04609499939861938 -0.03564579312603958
0002b0 04 44 8d cf 99 d5 a1 bf 37 ef dc 55 47 d4 b1 3f
       -0.03483276995269338 0.06964536520257246
0002c0 49 82 4a 9a e3 18 b4 bf 7f e3 a2 0f d6 92 99 bf
       -0.07850477711554861 -0.02497419805942824
0002d0 28 73 90 fa 7a 05 9d 3f 18 45 c6 92 4f 6b b0 3f
       0.02834121851275309 0.06413743337022415
0002e0 44 07 01 06 93 83 a1 3f 07 cf 9a b8 04 e5 b5 3f
       0.034206957323944326 0.08552579409552773
0002f0 4b 1b e3 32 fc 0f b9 bf 45 f2 9a 13 41 92 9e bf
       -0.09790016405450534 -0.029854790517435132
000300 7b 33 5e 97 71 60 c1 3f f1 8c 4e 2e 38 af b6 bf
       0.13575572863592442 -0.08861113672769584
000310 fe e4 f8 42 e2 da b7 bf e1 c5 aa da 92 07 c1 3f
       -0.09318365225853495 0.13304362942794426
000320 5b a6 8a 0c 0a bb 9a bf 4f da 71 dd 52 fd bc bf
       -0.026104123130301065 -0.11324041277280482
000330 de 50 e4 9c 56 80 72 3f 69 64 91 6e 38 e5 b0 bf
       0.004516924220542699 -0.06599762629902418
000340 63 44 74 4d 44 d0 b3 bf db 2e f7 d4 57 7a 65 bf
       -0.07739664927454863 -0.0026218142954571428
000350 8d 57 a8 e9 21 77 9c 3f b5 d1 6b 1f cd e9 73 bf
       0.027798204313590303 -0.004861642132472023
000360 30 6b 0f 26 a8 a5 c1 3f 77 82 15 33 0b 5a a5 bf
       0.1378679452744449 -0.041702604280321624
000370 52 25 d2 b0 a9 8c 91 3f 3c 96 a2 fa 28 65 b2 bf
       0.0171381487057592 -0.07185608023663631
000380 2c 69 10 57 b1 e6 b2 3f dc 6d 24 f9 6a 8b 50 3f
       0.0738325917776918 0.0010098023090624386
000390 6a e4 86 ee 83 39 b4 bf 9b b1 24 82 19 98 99 bf
       -0.07900261472140505 -0.024994276588743963
0003a0 2f bc da e2 57 f2 c1 3f 54 a8 24 f4 9c 61 b0 bf
       0.14020823075176866 -0.06398945770766434
0003b0 6c 7b 67 73 cc 36 b6 bf 00 00 00 80 9d a7 b2 bf
       -0.08677366082654964 -0.07287010550498962
0003c0 db 35 70 3a 01 ae a7 bf a3 9a 72 e5 8a 74 bf bf
       -0.046249426253875923 -0.12287204839467818
0003d0 87 64 8a 26 5b 00 9a bf e3 f9 47 2a 14 63 b0 3f
       -0.02539198324902661 0.06401182205443194
0003e0 90 66 46 97 49 cd bd 3f 81 b1 4b b9 95 31 a4 3f
       0.1164136881183373 0.039440802449322916
0003f0 75 5d bb b4 d9 0c a3 3f 5c 90 2a 07 16 43 c1 3f
       0.037207415878294826 0.13485980367579742
000400 c3 8c 59 64 95 6b a4 bf d6 2e 3a d5 04 ef b0 bf
       -0.03988329744313426 -0.06614713865036079
000410 b1 08 a4 0f 3c 86 a9 3f 76 7b 8e 01 73 65 c0 bf
       0.049852253827354594 -0.12809598518375837
000420 8f f4 72 5c 00 02 7f bf af 6e 31 7e 0c 39 a6 bf
       -0.007570268068943466 -0.043403997806959686
000430 e6 d0 82 44 71 f8 79 3f 98 3f a8 9d f7 d2 ac bf
       0.006340448810238741 -0.05629705237890831
000440 ff 18 dc 2d f7 ad 68 3f a4 52 63 36 35 9c b7 bf
       0.0030126407353946445 -0.09222729280311143
000450 39 7a d1 26 82 8e b1 3f 5a 89 fd fb ea 8b a6 bf
       0.06858075568877887 -0.044036238918823314
000460 ea 97 f0 a6 00 b6 a5 bf 3e 19 4f ef 2a f6 c3 3f
       -0.04240419423904014 0.15594994244583832
000470 1d 02 de e8 20 21 a4 3f 15 b0 75 e1 8b af aa bf
       0.039315250803159986 -0.052120562812746275
000480 98 5f bd 58 19 79 ab 3f e1 9a 99 64 48 96 ab bf
       0.05365828712700632 -0.05388094165828306
000490 2d b8 7c fb dd de 9f 3f e7 9a 1b 65 c8 d1 aa bf
       0.031123608088073396 -0.052381765692009634
0004a0 37 7e f5 41 c2 42 91 bf e2 64 ee 99 7e c4 bb bf
       -0.016856227184119468 -0.10846701868139833
0004b0 a2 3d 9a 03 87 03 aa bf df 9a b9 75 11 73 87 bf
       -0.05080816191650263 -0.01144994392889259
0004c0 bc 65 09 14 3f a7 ab bf 89 30 6d 3c 8a df bc bf
       -0.054010363765609054 -0.11278594947106248
0004d0 d1 e6 fd e8 a1 71 bc 3f 54 11 80 91 6b 71 bc bf
       0.11110889375950285 -0.11110565473797368
0004e0 c7 55 23 9d 69 f4 74 bf 42 1c 0a 86 e6 80 97 bf
       -0.00511590247534372 -0.022952653819199982
0004f0 c8 fb 41 53 dc b6 80 bf ee 48 fc 09 5f 5b b4 bf
       -0.008161279002022584 -0.07951921457086872
000500 8d 6d 43 95 63 5c b0 bf 24 dd 15 c1 83 99 70 3f
       -0.06390974420667402 0.004052652993201709
000510 d7 98 2b 27 13 58 a1 bf 1b 3d 70 6b 29 50 a4 3f
       -0.03387508252289855 0.03967408596519758
000520 5f dc d8 a2 70 83 8f bf 2f 93 0c 7d 1d 82 9e 3f
       -0.015387420625400048 0.029793225057022695
000530 0a 5e e8 9e 81 8b b3 bf a9 f9 8d ec 84 15 b0 bf
       -0.07634744767744209 -0.06282835746058048
000540 2e 38 b2 3c 1a 54 93 bf 92 00 1d 58 5a 2f 85 bf
       -0.018875513033485607 -0.010344224752430162
000550 92 40 c8 05 8a d7 a6 bf 76 81 1d 8e df d7 93 3f
       -0.04461318321784903 0.019378178643252274
000560 54 68 ab cb f6 96 b9 3f 6a 66 c4 11 8f 4e af 3f
       0.09995977852250465 0.061146231573911816
000570 6e ee 38 4b 78 1a ac bf 91 79 ef e4 71 5e 75 bf
       -0.05488944929353755 -0.005217022799995156
000580 19 2c a4 f9 ce 39 94 3f ce ea fb 2f e6 00 ac bf
       0.019751771914382574 -0.05469436012022798
000590 02 e7 04 09 07 fb c1 3f 20 69 cd b6 d1 75 96 3f
       0.1404732507742708 0.0219338195632669
0005a0 5d 72 49 2c 4b df 8e bf 17 ca 69 6e 5b d6 92 bf
       -0.015074336327580424 -0.01839583264740882
0005b0 80 62 95 d9 6f fc c7 bf d4 de 60 9e 74 90 a9 bf
       -0.1873912632388688 -0.04993023331956939
0005c0 40 b8 5d 63 dd d5 8f bf 10 56 1a b4 12 2f 43 bf
       -0.015544633479034897 -0.0005854455304922807
0005d0 76 46 8b 68 a2 b1 ae bf 18 93 2c b2 ca c5 89 bf
       -0.05994899297878657 -0.012584289133494006
0005e0 74 bd ff fe 3e 49 b3 3f 2c f4 38 d4 16 8b a8 3f
       0.07533639646111628 0.047936166196884095
0005f0 bb 5b 25 6f f0 03 ac bf ea eb a3 16 b6 ad ad bf
       -0.05471755368005612 -0.057965936912260776
000600 44 c9 0a 7e 49 98 ad bf 65 c1 7f 3b 9f 6f bf bf
       -0.057802483211519845 -0.12279696657765767
000610 55 37 7b e4 00 8e ba bf c2 3d 3d 56 a9 b6 80 3f
       -0.10372930124432618 0.008160899109184497
000620 1d 05 c1 b5 15 24 ba 3f 28 e4 53 5d da 2c a2 bf
       0.10211311042168743 -0.035498451130429765
000630 4d fa c4 c2 59 a1 b0 bf 85 2d a4 3f 36 46 6c bf
       -0.06496201520074259 -0.003451448396963821
000640 b7 58 91 72 16 0a b9 3f f1 89 fc cc 2f 88 b5 bf
       0.09781017586769535 -0.08410929445793848
000650 bd b0 8f 15 5a 48 99 bf fb 77 47 77 9d d5 95 bf
       -0.024690063062664736 -0.021322689442847303
000660 b0 b7 ba ef a3 3b 88 3f d3 89 bd f0 f9 12 b9 3f
       0.01183250499101604 0.0979458058114127
000670 39 3f d2 8d 12 42 64 3f bd d1 62 0f 10 41 94 3f
       0.002472912061939694 0.019779444636428545
000680 6a 50 1c d0 e0 9f ac 3f df 7d a0 df 2d 0a 7b bf
       0.055907273677946304 -0.006601504510427485
000690 67 19 93 fc dd 19 6a 3f b2 37 51 23 79 4e bf 3f
       0.0031861625362551885 0.12229115593183229
0006a0 1d 5a 60 06 d1 0a 98 3f 16 d8 a5 70 6c e1 76 bf
       0.02347876168649964 -0.0055860744417852905
0006b0 16 93 41 36 81 83 7b bf e0 70 00 f1 02 df a2 3f
       -0.0067172095624286245 0.03685769264140659
0006c0 ec 15 a4 9d 53 42 a7 3f 01 d5 33 4d a8 8c c2 3f
       0.04542790698364371 0.1449175240483456
0006d0 81 25 45 6c 7e a7 bb bf 60 59 3a 60 e3 5f c9 3f
       -0.10802450316727709 0.19823877524022304
0006e0 53 fc 67 8d de 5e ac bf 6f 31 b4 6c 8e 03 94 bf
       -0.05541129566335514 -0.019544816384084947
0006f0 81 15 16 8a d0 87 a3 3f 58 c0 da 20 b0 32 9f bf
       0.03814555822013244 -0.030466796880034813
000700 5e 22 7e ae b7 d3 a6 bf 99 63 d8 b6 86 7e 96 bf
       -0.04458402638471591 -0.021967034254064186
000710 8b 8d b2 30 70 8e c3 3f e7 64 50 f8 ed 82 a0 bf
       0.15278437021070732 -0.032248913347027224
000720 c5 43 d2 9f d0 5c bb bf 1d f5 d8 ab e1 2c a9 bf
       -0.10688499357117028 -0.0491705438875931
000730 3f 6c 41 bc 01 d1 a5 bf 1f e5 90 9f b1 21 b3 3f
       -0.042610220175185 0.07473287721304132
000740 f6 d7 94 1d 06 56 a5 3f 66 83 98 d3 ec 58 b2 bf
       0.04167193518735239 -0.07166938939964282
000750 92 f1 1d 97 49 50 b7 bf 86 36 c0 22 b9 2a b8 bf
       -0.09106883944872937 -0.09440190409096702
000760 a3 76 92 f0 5c ad a2 bf 88 39 1f 65 06 ac bc 3f
       -0.03647890507384701 0.11199989289091239
000770 a9 29 93 c2 9d 55 b3 3f d1 f3 21 70 8b 04 a4 bf
       0.07552515030253083 -0.0390971731548927
000780 07 68 99 7f b1 47 a1 3f 6f 46 3d ec 22 4c 80 bf
       0.03375010187728838 -0.007957718691304209
000790 f4 62 8e 0c 21 d4 b7 bf f9 82 b2 35 84 08 97 bf
       -0.09308058315799511 -0.022493425156997458
0007a0 f3 5e 59 c8 ae b9 b4 bf 6d a6 9a 9b 81 5d 9c bf
       -0.0809582938321645 -0.027700448152847935
0007b0 5f d1 73 05 0d 72 9f 3f 03 8e 67 c0 8e 72 aa bf
       0.030708507020749006 -0.051655255305174584
0007c0 25 dc 33 f1 f5 3f ab bf e4 a6 e7 e6 db 93 a9 bf
       -0.053222356504129466 -0.04995619958556377
0007d0 56 99 5e b8 98 99 bc bf 92 09 5a e8 ce a4 61 bf
       -0.11171869755944405 -0.002153782001927237
0007e0 20 2a 61 c1 f4 d1 c7 3f 42 d5 e2 91 a1 c7 a7 bf
       0.18609485094414513 -0.04644493966899656
0007f0 32 3b e5 d2 d8 62 7b 3f a5 a0 78 a8 71 9d b3 bf
       0.006686064689644765 -0.07662115443293034
